checkpoints/exp-traditional.pt (torch, 507097 bytes, 15 tensors)

pos_embedding f4 [1, 128, 32]
0.019287756 0.018928142 0.018903343 0.01788225 0.019752054 -0.018097011 -0.019177167 0.019892048
0.019776247 0.01881609 -0.014284489 0.018870926 -0.018694334 -0.020266173 -0.019189365 -0.019485556
0.019809479 -0.01950398 0.016264433 -0.019675083 0.02006966 0.01914384 -0.018769164 -0.01148734
-0.019336084 -0.01885767 0.017917672 0.011330448 0.019233935 -0.019241605 0.017499698 0.019367427
0.017084483 0.010334269 0.014519264 -0.018232869 0.016958209 -0.005928776 0.005659502 -0.019501632
0.013253549 -0.019183554 -0.018109936 0.00815526 0.018982656 -0.017562743 0.013136666 -0.007625823
-0.01912031 0.015094861 0.016545933 -0.014321404 -0.019719746 -0.0013547811 -0.018053828 -0.019957047
0.018591965 -0.012649639 -0.016130531 -0.014070865 -0.018644435 -0.019175418 -0.017894635 -0.01886297
0.018371616 -0.018915255 -0.018503388 0.018908042 -0.01602304 0.01773029 0.018920831 0.019755257
-0.000938657 0.0003192727 -0.018069815 0.0024058805 -0.019248053 0.017885098 -0.017978722 0.019617336
-0.016211893 -0.018576052 0.017194904 0.008222613 -0.017825514 -0.018010711 0.01928537 0.017982284
0.017548312 -0.010685391 0.017114459 0.019671602 0.01743283 0.019978205 0.020128563 0.019719223
-0.019483095 0.018062497 0.018605396 -0.018681748 0.008769598 -0.019395418 -0.01680275 -0.0044744336
0.009841176 0.019630356 0.014553399 -0.018859988 0.0026978662 -0.017005913 0.00863743 0.018648142
0.01881628 -0.014686026 -0.009649626 -0.017104158 0.016519655 0.018542033 -0.0003791171 -0.011983626
-0.019750522 0.0045103966 -0.0148625355 -0.017708568 0.0072444538 0.018688781 0.005695775 0.0060500936
-0.008149041 -0.0057397373 0.011726933 0.007913857 0.015311668 -0.019666912 -0.0178261 -0.003246112
-0.017833984 0.01824496 -0.014546485 0.0142912725 0.0014876564 -0.015063474 0.0040423754 -0.019450746
0.013963862 -0.013376295 -0.017175 -0.018304659 -0.003232419 0.010809037 -0.017711036 -0.012435293
0.019445188 -0.018235315 0.016459402 0.011975535 -0.015509207 -0.0114074815 0.0077338684 -0.01850908
-0.017394045 0.018525742 0.01755737 0.008570358 0.017282777 -0.0023133329 0.019639079 0.014685531
-0.014968519 0.018338136 0.011230774 -0.013419399 -0.006126727 0.014185258 0.008009731 0.019389063
0.018285997 -0.0011390415 -0.0075966367 0.0106797805 -0.017717248 -0.014575813 0.01043551 -0.0024212615
-0.018880961 0.01439661 -0.019200996 -0.01687937 0.018463334 0.016030714 0.016559443 -0.012810782
-0.0027420223 -0.016754191 -0.018102493 -0.017528381 -0.013650178 -0.016222049 0.012238332 -0.016847942
0.01879101 -0.018589476 -0.01888091 -0.019387824 -0.017532399 -0.019094614 -0.018125366 -0.008430204
-0.019284332 -0.0022649795 0.019056676 -0.01878144 -0.018882075 0.019709794 -0.014359418 0.018887082
0.015649496 0.015109493 0.016271533 0.0091325985 -0.019170837 -0.017259182 -0.018625831 0.018739086
0.02002553 0.012844769 0.015254948 0.01173107 -0.00039524987 0.018109992 -0.016963275 0.016975267
-0.012563524 0.0053598396 -0.00937969 0.019461075 0.017372651 0.019096976 0.018495012 -0.019005444
-0.014301949 0.018082507 -0.018569134 0.003076524 0.014779545 -0.015628982 0.014186455 -0.015585573
0.0097969 -0.0043703043 0.0041771876 -0.017775277 0.012444057 -0.016092874 0.002362272 -0.019948086
00000000: 5b01 9e3c 310f 9b3c 2fdb 9a3c cc7d 923c
00000010: 0fcf a13c 2f40 94bc 6f19 9dbc a6f4 a23c
00000020: cc01 a23c 3324 9a3c 7d09 6abc 3397 9a3c
00000030: dc24 99bc 3f05 a6bc 0433 9dbc 2ca0 9fbc
00000040: 7d47 a23c d0c6 9fbc fd3c 853c a42d a1bc
00000050: 2169 a43c 8bd3 9c3c cac1 99bc 6535 3cbc
00000060: b566 9ebc 667b 9abc 15c8 923c 58a3 393c
00000070: 7c90 9d3c 92a0 9dbc 875b 8f3c 70a8 9e3c
00000080: c2f4 8b3c 1151 293c 35e2 6d3c 195d 95bc
00000090: f1eb 8a3c 2e46 c2bb 5873 b93b e3c1 9fbc
000000a0: 6a25 593c d426 9dbc 4a5b 94bc a49d 053c
000000b0: 8481 9b3c bedf 8fbc 2c3b 573c 0ae2 f9bb
000000c0: 32a2 9cbc 7050 773c 568b 873c 52a4 6abc
000000d0: 4e8b a1bc e992 b1ba 9fe5 93bc f67c a3bc
000000e0: 2d4e 983c 6e40 4fbc 2d24 84bc 7c89 66bc
000000f0: 37bc 98bc c415 9dbc c597 92bc 8486 9abc
00000100: 1280 963c 2af4 9abc 6b94 97bc 0ae5 9a3c
00000110: c042 83bc 1d3f 913c dcff 9a3c c7d5 a13c
00000120: 3410 76ba 0e64 a739 2607 94bc faab 1d3b
00000130: 18ae 9dbc c583 923c 1d48 93bc 89b4 a03c
00000140: cece 84bc ce2c 98bc 54dc 8c3c 23b8 063c
00000150: d006 92bc 338b 93bc 5afc 9d3c 954f 933c
00000160: 7ac1 8f3c c711 2fbc 9f33 8c3c 5726 a13c
00000170: 4bcf 8e3c 55a9 a33c a8e4 a43c 358a a13c
00000180: 039b 9fbc cdf7 933c 586a 983c 770a 99bc
00000190: 5cae 0f3c 24e3 9ebc eca5 89bc 459e 92bb
000001a0: e23c 213c d7cf a03c 6171 6e3c 4380 9abc
000001b0: afce 303b fc4f 8bbc 0284 0d3c fdc3 983c
000001c0: 9924 9a3c a89d 70bc 7719 1ebc 051e 8cbc
000001d0: 3a54 873c 76e5 973c 3cc4 c6b9 f856 44bc
000001e0: d9cb a1bc f3cb 933b fe81 73bc 8f11 91bc
000001f0: e262 ed3b 3719 993c a0a3 ba3b dd3f c63b
00000200: 8e83 05bc 6814 bcbb 5222 403c 1fa9 013c
00000210: cadd 7a3c 811c a1bc 0b08 92bc b9bc 54bb
00000220: 9318 92bc 7476 953c 6154 6ebc f125 6a3c
00000230: 77fd c23a cacc 76bc e775 843b 2c57 9fbc
00000240: afc8 643c 3f28 5bbc 96b2 8cbc a7f3 95bc
00000250: fed6 53bb 6318 313c bc16 91bc 66bd 4bbc
00000260: 844b 9f3c 3a62 95bc ded5 863c 0935 443c
00000270: 541a 7ebc 72e6 3abc 646c fd3b 5ba0 97bc
00000280: f57d 8ebc 4cc3 973c 79d4 8f3c b06a 0c3c
00000290: 9c94 8d3c 499b 17bb 22e2 a03c 959b 703c
000002a0: 853e 75bc dc39 963c 4801 383c 0add 5bbc
000002b0: b6c2 c8bb 4969 683c 3f3b 033c d0d5 9e3c
000002c0: 84cc 953c e44b 95ba 35ed f8bb 3ffa 2e3c
000002d0: c323 91bc 64cf 6ebc b4f9 2a3c 07ae 1ebb
000002e0: 3fac 9abc c2df 6b3c 684b 9dbc 9b46 8abc
000002f0: 6b40 973c d852 833c aba7 873c 50e4 51bc
00000300: 80b3 33bb 1640 89bc ae4b 94bc ae97 8fbc
00000310: ffa4 5fbc 1ae4 84bc 4983 483c b204 8abc
00000320: 9bef 993c f548 98bc 23ac 9abc 37d3 9ebc
00000330: 1ba0 8fbc 4f6c 9cbc a67b 94bc d71e 0abc
00000340: 2dfa 9dbc 0d70 14bb bf1c 9c3c 89db 99bc
00000350: 95ae 9abc 6f76 a13c c443 6bbc 15b9 9a3c
00000360: 5f33 803c cf8d 773c e14b 853c e5a0 153c
00000370: 290c 9dbc 2163 8dbc 3395 98bc b682 993c
00000380: 950c a43c de72 523c e4ef 793c ac33 403c
00000390: 8a39 cfb9 685b 943c 91f6 8abc b70f 8b3c
000003a0: 3dd7 4dbc 98a1 af3b 45ad 19bc d56c 9f3c
000003b0: 1751 8e3c 4371 9c3c da82 973c 4eb1 9bbc
000003c0: b952 6abc c421 943c 4c1e 98bc 829f 493b
000003d0: e825 723c 5a08 80bc 4e6e 683c a25a 7fbc
000003e0: 2d83 203c c534 8fbb cae0 883b 759d 91bc
000003f0: 28e2 4b3c 34d5 83bc 59d0 1a3b 2b6a a3bc

embedding.weight f4 [3392, 32]
1.5584095 -0.70680094 -0.34914383 -0.5808221 1.7000399 -1.9264196 -0.63256073 1.2275677
-1.4507266 0.41685107 -1.3911532 1.2454542 -0.13648117 1.0862913 -0.1031318 -0.42493138
1.4360857 -0.57680047 -2.0708857 -0.13660069 -1.6795095 0.5784441 0.4085996 1.5896885
-0.4679824 -0.9874288 0.22932687 -0.39786306 -0.3109978 -1.109008 -0.9204221 -0.6579682
-0.8010132 -1.1614373 0.35261032 -0.4932947 -0.23962167 -0.28199863 0.44994146 0.26452807
-2.768694 -0.47011504 -0.09080456 -0.42379382 0.060842194 1.0017177 0.78412914 1.0723231
-0.11226632 2.410374 -0.76877993 1.3633083 0.0007633571 -1.3208388 0.7735254 0.9308493
0.25435263 1.269836 -0.69267285 0.016386867 -0.82519853 1.1086195 -0.9980615 -0.23514226
0.4870256 -0.120011054 0.60570717 0.24988045 0.3810839 -1.4203323 0.23194285 0.599721
0.9180031 0.921539 -0.98608696 -0.2220406 -0.49257976 -0.37920764 -0.18342777 0.96856767
-0.676918 0.37231082 0.16302274 0.03883171 -0.65548253 -0.7579293 0.015830794 1.9987794
1.1087062 0.02568257 1.1153954 0.39911434 -0.3371674 1.2681642 0.26023862 -1.0949754
-0.4416068 0.29406512 1.5088326 0.8627454 0.9135346 1.0334364 -0.30276626 0.07342025
-2.0452368 -0.19952045 0.16227506 0.01865103 1.1923523 0.039459813 -0.7543378 0.05812603
0.50622594 -1.6018959 -0.38389692 0.9082297 0.82614815 2.2062216 0.042152885 1.6837087
0.24808653 -1.3825467 -1.1407317 0.015233754 0.941334 -0.314175 -0.5640909 -0.37153184
-0.036898475 0.2935268 -0.88325864 -0.99031824 0.70001876 1.927913 -0.20448643 0.5902614
-1.3891158 -1.5593295 1.4178263 2.397189 0.46526173 -0.8893365 -2.3390515 -1.3777313
0.5877107 -1.5400733 -1.4573966 -0.604 0.53348637 0.38941061 0.6710479 0.4301841
1.2862194 -1.8712368 1.0023831 -1.8836627 -0.1239468 -0.8222977 1.143629 -0.18901937
-0.01774676 -0.796495 1.199174 -0.1086064 -0.9947708 -0.58719283 -0.35332444 -1.2834591
-1.3234341 1.1851758 1.9300371 -0.24629234 1.6467284 0.20811398 0.110575326 -0.083346285
0.45658812 -0.105293766 -0.6822749 0.5501191 -0.66525966 0.31759 -0.74073005 0.7974688
0.59358966 -0.56182575 -1.0171661 0.75971895 2.3572478 -1.0021799 0.95298594 -2.0505996
-0.5562008 -0.14316465 0.30476713 -0.16020958 -0.53841877 -0.60844064 0.21568364 -1.3367736
-0.014746343 -0.18038248 -0.100818 -1.980071 -0.2088877 -1.2248201 -1.2554004 -0.11910126
-0.44327402 -0.053399015 0.28910598 -0.23296078 -0.14797452 1.268012 -0.9631339 1.4864975
0.093139224 0.7824374 0.0044091353 0.13021922 -1.6872867 -0.29251695 -0.6319692 2.0453007
1.9665307 -0.20369609 1.4297848 1.4307344 2.0611103 -0.3599804 -0.5316684 0.13785908
-0.30033034 1.5214574 0.7426707 1.1078899 -0.4727942 0.6422662 0.53531724 -0.20102935
-1.7440655 0.087946594 0.75988626 0.4158955 0.4474734 -0.3694495 0.2943123 0.35508057
-1.2008578 -0.12608379 1.895601 0.38720816 0.7393084 1.216736 -0.21360122 -0.32939845
00000000: f679 c73f e8f0 34bf fbc2 b2be c2b0 14bf
00000010: e89a d93f eb94 f6bf 80ef 21bf f020 9d3f
00000020: 69b1 b9bf 816d d53e 4f11 b2bf 0b6b 9f3f
00000030: b8c1 0bbe 980b 8b3f c436 d3bd 9b90 d9be
00000040: a8d1 b73f 32a9 13bf 6489 04c0 0de1 0bbe
00000050: 2bfa d6bf ea14 143f f733 d13e ea7a cb3f
00000060: 649b efbe 22c8 7cbf aad4 6a3e b5b4 cbbe
00000070: 1b3b 9fbe f9f3 8dbf c8a0 6bbf 9b70 28bf
00000080: 330f 4dbf faa9 94bf 5789 b43e 1f91 fcbe
00000090: 625f 75be 2062 90be ba5e e63e 3970 873e
000000a0: 4832 31c0 ebb2 f0be bef7 b9bd 81fb d8be
000000b0: aa35 793d 4938 803f b0bc 483f e241 893f
000000c0: e2eb e5bd 9143 1a40 c3ce 44bf e380 ae3f
000000d0: 071c 483a 3f11 a9bf c305 463f 244c 6e3f
000000e0: 823a 823e fc89 a23f 0253 31bf c03d 863c
000000f0: 3640 53bf 3ee7 8d3f f580 7fbf 22c9 70be
00000100: 6b5b f93e 5bc8 f5bd a00f 1b3f a9e0 7f3e
00000110: 6e1d c33e 73cd b5bf 6d82 6d3e 5187 193f
00000120: 4002 6b3f fbe9 6b3f 3270 7cbf 9c5e 63be
00000130: 6a33 fcbe 8127 c2be 7dd4 3bbe 0df4 773f
00000140: 804a 2dbf 869f be3e 6fef 263e 000e 1f3d
00000150: b4cd 27bf a807 42bf 95af 813c 01d8 ff3f
00000160: 16ea 8d3f 4164 d23c 47c5 8e3f b758 cc3e
00000170: 35a1 acbe 3453 a23f ff3d 853e 2728 8cbf
00000180: 491a e2be b48f 963e 6d21 c13f e2dc 5c3f
00000190: 67dd 693f a547 843f 2e04 9bbe 5b5d 963d
000001a0: 29e5 02c0 174f 4cbe 6f2b 263e 0bca 983c
000001b0: 009f 983f 9da0 213d 481c 41bf 8f15 6e3d
000001c0: 0698 013f ed0a cdbf 238e c4be be81 683f
000001d0: 727e 533f bc32 0d40 81a8 2c3d c483 d73f
000001e0: 650a 7e3e 4af7 b0bf 7f03 92bf ff96 793c
000001f0: 44fb 703f 8cdb a0be 4368 10bf 6c39 bebe
00000200: db22 17bd 2549 963e 3d1d 62bf 7f85 7dbf
00000210: 6e34 333f dac5 f63f e464 51be 5f1b 173f
00000220: 8cce b1bf 1c98 c7bf 557b b53f 8b6b 1940
00000230: c936 ee3e 8fab 63bf 05b3 15c0 8059 b0bf
00000240: 3574 163f 1f21 c5bf f98b babf be9f 1abf
00000250: 9092 083f d460 c73e ccc9 2b3f 1741 dc3e
00000260: d6a2 a43f b084 efbf 174e 803f dc1b f1bf
00000270: d2d7 fdbd 1a82 52bf 6f62 923f 4b8e 41be
00000280: a761 91bc 19e7 4bbf 897e 993f 086d debd
00000290: 4da9 7ebf 4552 16bf f1e6 b4be 6348 a4bf
000002a0: 4a66 a9bf d7b3 973f 750b f73f 0f34 7cbe
000002b0: ffc7 d23f d51b 553e 5175 e23d 75b1 aabd
000002c0: ebc5 e93e 42a4 d7bd 91a9 2ebf 9bd4 0c3f
000002d0: 754e 2abf 289b a23e 7ca0 3dbf ea26 4c3f
000002e0: 7ef5 173f d0d3 0fbf 8032 82bf f17c 423f
000002f0: 26dd 1640 6e47 80bf e3f6 733f 063d 03c0
00000300: 2d63 0ebf c199 12be 700a 9c3e fb0d 24be
00000310: d0d5 09bf c4c2 1bbf 2cdc 5c3e 661b abbf
00000320: a59a 71bc 2fb6 38be ab79 cebd f772 fdbf
00000330: a8e6 55be e8c6 9cbf f6b0 a0bf 5deb f3bd
00000340: d0f4 e2be edb8 5abd b305 943e 458d 6ebe
00000350: a286 17be 384e a23f f18f 76bf 8d45 be3f
00000360: c7bf be3d d14d 483f 827a 903b 3058 053e
00000370: 03f9 d7bf c8c4 95be bcc8 21bf 35e6 0240
00000380: 47b7 fb3f b595 50be 3003 b73f 4e22 b73f
00000390: 3be9 0340 5a4f b8be 6c1b 08bf ee2a 0d3e
000003a0: e6c4 99be 1ebf c23f ab1f 3e3f 56cf 8d3f
000003b0: 1512 f2be 8f6b 243f 8d0a 093f a3da 4dbe
000003c0: 8a3d dfbf 581d b43d e887 423f 41f0 d43e
000003d0: 3c1b e53e 7c28 bdbe 1ab0 963e 1fcd b53e
000003e0: b5b5 99bf 1c1c 01be 0ea3 f23f 2640 c63e
000003f0: 5143 3d3f 01be 9b3f 47ba 5abe eaa6 a8be

layer.self_attn.in_proj_weight f4 [96, 32]
-0.19433838 0.19770803 -0.044630885 0.1373877 0.19581579 0.17111818 -0.115977004 -0.14597024
0.010734592 0.06568747 -0.21802405 0.18850741 0.022134544 0.15021197 -0.07292801 0.2212923
-0.119942516 0.17387329 0.16387925 0.11941648 -0.08978503 0.098358035 0.12933616 -0.12786515
-0.21484962 0.14737935 -0.060869474 0.15401848 -0.17030248 0.09419337 0.014819623 -0.1475971
0.18520337 -0.16004197 0.048320815 -0.20483628 -0.10617629 -0.1036021 -0.09432906 0.05351886
0.19287853 -0.110822 -0.051413734 0.028489256 0.03464933 -0.22246677 0.06046423 -0.09237831
0.19044313 -0.16138913 -0.16019416 -0.14981504 -0.007263556 -0.2172945 -0.15511736 -0.08090707
0.034302767 -0.086412765 -0.1493113 -0.2139084 0.14415626 0.19865835 0.07845637 0.10623706
-0.21338579 0.15461367 -0.092495866 0.018576376 -0.09152487 0.1585999 -0.06492511 -0.20652555
-0.021919707 0.101255015 -0.059925973 -0.10277679 -0.028945845 -0.10454912 0.123022094 -0.06761224
0.09878236 -0.22744311 -0.12366208 0.14387187 0.16351494 0.076907076 0.17034447 0.14393409
-0.020937867 0.08650802 0.058726266 0.23198925 0.038893126 -0.17322485 -0.01585485 -0.06709576
0.03900429 0.1964816 0.019363906 0.021637606 -0.08085654 0.20988686 -0.104204655 -0.15367341
-0.13395712 0.016296873 0.019345727 0.0009752964 -0.09026886 0.23476031 0.082664415 0.02026658
0.050181102 -0.029138368 0.11462185 0.18404876 -0.04232134 -0.07791819 -0.14310499 0.17742755
0.2349991 0.1400646 0.17120504 -0.01861287 0.110669665 -0.05966847 0.11881429 0.08006247
0.10964272 0.22432204 0.10980086 0.070669636 0.1358498 -0.045603164 -0.14293304 -0.051722564
-0.015766889 0.14667651 -0.17963953 0.12547278 0.11120217 0.08340148 0.09685013 -0.11632146
-0.18804114 -0.09855129 0.2088804 0.11947596 -0.092800386 -0.19497015 0.042066716 0.012931307
-0.23261558 0.11193935 -0.14009528 -0.07791994 0.056093413 0.12817065 -0.06519183 0.015772304
-0.22792798 0.016380338 0.0062289406 -0.077565536 0.097116895 -0.15350166 0.06531859 -0.024158305
0.11369103 0.15808317 0.22631729 0.15820828 -0.103585884 -0.13103583 0.105056025 0.12988518
-0.16706376 -0.15946178 0.03854595 0.11278915 0.21457933 -0.13191241 -0.08200726 0.105204605
-0.022729551 0.14187911 -0.0776543 0.227811 0.15751517 0.0007247492 0.1717792 0.09388602
0.014238239 0.18229944 -0.14703357 -0.115584075 -0.067485005 -0.17241527 0.12041034 0.17624372
0.060080778 -0.040392157 -0.029628096 -0.178941 -0.12273837 0.21902332 -0.017996723 0.20065145
0.042435158 -0.19732866 -0.036274463 0.03971986 0.06880538 0.19825894 -0.09480683 -0.12640473
0.008123926 -0.15904437 0.20950356 -0.07098808 0.00011306681 -0.20009036 -0.041632883 -0.16777596
-0.16082388 0.043654066 -0.16935287 -0.026366683 -0.07291524 0.22831434 0.09636883 0.16352355
-0.20196553 0.017065134 0.024560152 -0.09944754 0.09735661 0.071936645 0.14714186 -0.10844977
-0.0452409 0.19531275 -0.00065062946 0.14053173 -0.036539562 -0.05363632 -0.004952335 0.08786974
0.07347088 -0.12288337 0.059474543 -0.17976156 -0.058854647 -0.23013689 -0.023511197 0.089559324
00000000: a400 47be f973 4a3e e0ce 36bd 5caf 0c3e
00000010: ef83 483e 9b39 2f3e 5a85 edbd 3979 15be
00000020: 24e0 2f3c 2787 863d b241 5fbe 1608 413e
00000030: 8153 b53c 2bd1 193e 485b 95bd 739a 623e
00000040: 6ca4 f5bd d70b 323e f6cf 273e a190 f43d
00000050: 37e1 b7bd f06f c93d b370 043e 15ef 02be
00000060: 8a01 5cbe 9dea 163e 4552 79bd 05b7 1d3e
00000070: c663 2ebe 74e8 c03d 01ce 723c b223 17be
00000080: f4a5 3d3e 0be2 23be 0cec 453d 9ac0 51be
00000090: f472 d9bd 562d d4bd 982f c1bd 9836 5b3d
000000a0: f381 453e a5f6 e2bd 3597 52bd 4d62 e93c
000000b0: 75ec 0d3d 54ce 63be 57a9 773d d730 bdbd
000000c0: 8603 433e 3143 25be f009 24be 1d69 19be
000000d0: 2003 eebb 7382 5ebe 16d7 1ebe 9bb2 a5bd
000000e0: 0f81 0c3d 2df9 b0bd 10e5 18be ce0a 5bbe
000000f0: b39d 133e 186d 4b3e bcad a03d d192 d93d
00000100: ce81 5abe 0c53 1e3e 796e bdbd 7c2d 983c
00000110: 6471 bbbd 0368 223e 75f7 84bd 6f7b 53be
00000120: f590 b3bc ca5e cf3d f074 75bd a37c d2bd
00000130: d61f edbc d91d d6bd 02f3 fb3d 4978 8abd
00000140: 684e ca3d d9e6 68be 8b42 fdbd 2653 133e
00000150: 7670 273e 7581 9d3d c86e 2e3e 7563 133e
00000160: e485 abbc 1e2b b13d f48a 703d 978e 6d3e
00000170: 664e 1f3d db61 31be 08e2 81bc 8069 89bd
00000180: f6c2 1f3d 7932 493e 0ea1 9e3c 5941 b13c
00000190: 1d98 a5bd 95ec 563e 4069 d5bd 905c 1dbe
000001a0: 0e2c 09be 0581 853c ee7a 9e3c 09ab 7f3a
000001b0: e1de b8bd 0265 703e f64b a93d 1906 a63c
000001c0: b38a 4d3d 96b3 eebc dcbe ea3d 4777 3c3e
000001d0: 2459 2dbd 9293 9fbd 1d8a 12be 91af 353e
000001e0: 9ba3 703e 186d 0f3e 6050 2f3e 047a 98bc
000001f0: c7a6 e23d ed66 74bd e854 f33d cbf7 a33d
00000200: 5d8c e03d adb4 653e 46df e03d 3ebb 903d
00000210: 361c 0b3e 62ca 3abd 0a5d 12be 0adb 53bd
00000220: 9029 81bc 5e32 163e 6df3 37be f07b 003e
00000230: f7bd e33d 65ce aa3d 5c59 c63d f239 eebd
00000240: db8d 40be 42d5 c9bd bee4 553e d0af f43d
00000250: 210e bebd 41a6 47be 264e 2c3d d5dd 533c
00000260: c732 6ebe 7540 e53d 2375 0fbe 7d94 9fbd
00000270: 35c2 653d 2b3f 033e 4b83 85bd eb34 813c
00000280: f465 69be 0f30 863c 241c cc3b aeda 9ebd
00000290: 39e5 c63d 8a2f 1dbe c1c5 853d a3e7 c5bc
000002a0: d8d6 e83d 8ee0 213e b8bf 673e 5a01 223e
000002b0: d624 d4bd 422e 06be 9d27 d73d 9f00 053e
000002c0: c312 2bbe f349 23be 5ce2 1d3d fffd e63d
000002d0: afba 5b3e 0c14 07be 6cf3 a7bd 8375 d73d
000002e0: 5333 babc c248 113e 3809 9fbd 4947 693e
000002f0: a84b 213e 18fd 3d3a e3e6 2f3e 5047 c03d
00000300: 8147 693c b4ac 3a3e f88f 16be 58b7 ecbd
00000310: 9435 8abd a18d 30be b299 f63d 3c79 343e
00000320: 4317 763d 3f72 25bd 9fb6 f2bc 4f3c 37be
00000330: 415e fbbd a647 603e dd6d 93bc 9377 4d3e
00000340: 7dd0 2d3d 8610 4abe 8894 14bd 4bb1 223d
00000350: d6e9 8c3d 6404 4b3e 152a c2bd 3e70 01be
00000360: 371a 053c 87dc 22be 1a88 563e 3362 91bd
00000370: 481e ed38 7de4 4cbe 3e87 2abd 76cd 2bbe
00000380: 04af 24be 9bce 323d d76a 2dbe f1fe d7bc
00000390: 9654 95bd 3ccb 693e 055d c53d b872 273e
000003a0: 0dd0 4ebe 2ecc 8b3c 5f32 c93c 27ab cbbd
000003b0: e762 c73d 8553 933d 5bac 163e ea1a debd
000003c0: 864e 39bd 1100 483e 018f 2aba 8de7 0f3e
000003d0: 82aa 15bd c2b1 5bbd 3247 a2bb 0df5 b33d
000003e0: e777 963d 47aa fbbd 949b 733d 6a13 38be
000003f0: 9211 71bd 01a9 6bbe 8e9a c0bc e16a b73d

layer.self_attn.in_proj_bias f4 [96]
-0.011102006 -0.017260423 0.0025186413 0.018637355 -0.017275808 0.018480903 0.003427562 -0.0037697295
0.01934796 -0.017647319 -0.010379593 -0.0050314274 0.00687001 -0.0040093097 0.012667287 -0.0052585183
0.020029062 -0.015317438 -0.018983051 -0.019721856 -0.0092431605 -0.020086244 -0.01941684 0.020086724
0.018604591 -0.00036715646 0.004623567 0.019520916 0.019568983 -0.015317087 0.017265586 -0.019052494
-6.753698e-05 -2.0032225e-05 5.7470654e-05 -3.6480717e-05 -0.00016118317 -8.7198285e-05 -6.721745e-05 5.010462e-05
7.116694e-07 0.00013544757 0.00017685723 1.0817445e-06 8.074401e-05 -3.9378974e-05 -2.1498783e-05 1.3408984e-05
2.6767573e-05 6.900091e-05 -0.0002353432 -0.00011054594 8.3589066e-07 0.00010406198 4.1639696e-06 0.000116816205
3.3644847e-06 -6.288857e-05 -0.00012240601 -4.053705e-05 0.0001570795 -4.320136e-05 9.776001e-05 -5.6739285e-05
-0.020086862 -0.006105484 0.01364685 0.015260069 0.01707224 -0.019034656 -0.019817919 0.01805648
0.00048159948 0.01329567 0.020367514 -0.019363586 0.01671185 0.011595294 -0.0036034104 -0.0063584642
-0.018111235 -0.0097785825 -0.016432935 0.017213048 0.004464346 0.018502459 0.019624991 0.017256962
0.011816502 0.018607674 -0.008479422 -0.0034408607 -0.007147222 -0.019899646 0.0076081622 0.020141494
00000000: 30e5 35bc bb65 8dbc ca0f 253b 5ead 983c
00000010: ff85 8dbc 4365 973c f3a0 603b 910d 77bb
00000020: 9d7f 9e3c 1c91 90bc 2b0f 2abc acde a4bb
00000030: d21d e13b 8760 83bb 748a 4f3c a64f acbb
00000040: fd13 a43c fef5 7abc 5882 9bbc bb8f a1bc
00000050: a070 17bc e88b a4bc 1110 9fbc ea8c a43c
00000060: a868 983c e87e c0b9 4b81 973b 54ea 9f3c
00000070: 224f a03c 85f4 7abc 8f70 8d3c fa13 9cbc
00000080: a4a2 8db8 e00a a8b7 a50c 7138 df02 19b8
00000090: 4703 29b9 39de b6b8 18f7 8cb8 6d27 5238
000000a0: 8c09 3f35 ee06 0e39 c072 3939 7530 9135
000000b0: 1c55 a938 da2a 25b8 4958 b4b7 26f7 6037
000000c0: ed8a e037 95b4 9038 76c6 76b9 e6d4 e7b8
000000d0: f861 6035 da3b da38 3ab8 8b36 39fb f438
000000e0: 68c9 6136 0be3 83b8 1d5a 00b9 5306 2ab8
000000f0: b5b5 2439 1b33 35b8 8104 cd38 58fb 6db8
00000100: 348d a4bc 8310 c8bb 0a97 5f3c 5e05 7a3c
00000110: 15db 8b3c 91ee 9bbc 3059 a2bc 2feb 933c
00000120: 307f fc39 15d6 593c c6d9 a63c 62a0 9ebc
00000130: 4ae7 883c 30fa 3d3c 3227 6cbb aa5a d0bb
00000140: 035e 94bc 5936 20bc 5d9e 86bc 6102 8d3c
00000150: a649 923b 7892 973c 97c4 a03c 795e 8d3c
00000160: 009a 413c 1f6f 983c 46ed 0abc 1080 61bb
00000170: 3e33 eabb 9504 a3bc e44d f93b c6ff a43c

layer.self_attn.out_proj.weight f4 [32, 32]
-0.04345558 -0.072551325 0.0608036 0.11371551 0.19282208 0.020169111 0.07427781 -0.16405682
-0.16767655 0.012110379 -0.14856344 -0.14220542 -0.043322213 0.13807723 -0.024744574 0.12770095
-0.14453912 -0.12996894 -0.07616701 -0.05246096 -0.07807857 0.09559725 0.19467275 -0.15449047
0.14643537 -0.04630073 0.0395965 0.05214213 -0.072582304 -0.03658645 0.015112978 0.080095515
-0.12952292 -0.1513023 -0.15395984 0.02297026 0.18030834 0.04047411 -0.08153857 0.052220594
0.186909 0.14058687 -0.053029537 -0.15158945 -0.014504851 0.11409493 -0.18228455 -0.064393565
0.05328126 -0.13849783 0.0017922097 0.09200074 0.1250247 0.10508608 -0.08670392 -0.065804884
0.07062713 0.11630048 -0.07793568 -0.05053041 -0.074179366 -0.16458774 0.054496203 -0.120201655
0.12061362 0.08240047 0.00035383305 0.06904623 -0.15997048 0.08892327 0.07150114 0.022373877
-0.0077110482 -0.049944725 -0.009179409 0.061292432 -0.1672002 0.040588193 -0.11554755 0.17691688
0.035166346 0.037277415 0.061464604 -0.023002606 0.043414585 0.17150724 -0.10407797 0.10672742
-0.15117396 -0.05688526 -0.056845192 -0.15654667 0.14622231 -0.045771264 -0.013445744 0.06882712
0.0061344136 0.011416742 -0.06775493 0.116516225 -0.08510378 0.18500498 -0.08676297 -0.011008501
0.040920604 -0.07594999 -0.114669666 -0.1656966 0.11935132 -0.0740675 0.057092264 0.019960877
0.027952459 0.09395323 0.16461204 0.18744442 -0.13235477 -0.15693556 0.14757802 0.00019570102
0.1584055 0.14459369 -0.084005 -0.13912687 -0.16974191 -0.14414002 -0.10818117 0.08249153
0.104029365 0.022434432 0.16123559 -0.023186227 0.14499553 0.0054384167 -0.1482692 -0.14160974
-0.14325969 -0.102597624 -0.0103406925 -0.0009758754 -0.021754134 -0.0068050683 0.16735025 0.14892884
-0.15791912 0.03831122 0.13634865 -0.15279199 -0.060508955 0.10290683 -0.047437117 0.1832296
-0.013092223 0.15483057 -0.045653384 -0.1464983 0.12172056 0.04099865 0.17733255 -0.0026889364
0.15597382 0.06130691 0.021477005 0.15449633 -0.16843484 0.11646981 0.016528143 -0.09482244
-0.05127934 -0.10015536 0.09758242 -0.16339414 -0.03865447 -0.07302934 -0.08308528 0.16418818
0.15107667 -0.12813902 -0.09606133 -0.012563979 -0.14794007 -0.19630155 -0.05494289 -0.05126863
-0.034665942 0.10196787 -0.00011962376 0.01432482 0.060710948 0.097197555 0.12008802 0.07374898
-0.0731774 -0.12989841 0.1503989 -0.12148563 -0.1670252 -0.068615995 -0.06286878 0.071173206
0.104902476 -0.10440853 -0.07525355 -0.06765182 0.104817405 0.013372146 -0.08207481 -0.050659433
-0.0467507 0.17661485 0.06044624 -0.08117748 -0.0051631564 0.06261131 -0.117240064 -0.09623113
0.122632675 -0.012137753 -0.009882052 -0.059104152 0.13835524 -0.110164806 -0.14413469 -0.13948815
0.093936175 0.051685568 0.1532031 -0.07059187 0.054464098 -0.1429759 -0.1412182 0.10833206
0.009553484 -0.090570666 0.11858022 0.068520874 -0.16827948 0.1483509 0.029452406 0.019024672
-0.17164545 0.111982316 -0.1328976 0.06066809 -0.17278895 0.13561563 0.0041667847 -0.0017859847
0.10051481 0.03240454 -0.13394955 0.098215245 0.00027282233 0.15087767 -0.066936515 -0.08981954
00000000: 7afe 31bd ca95 94bd 320d 793d ade3 e83d
00000010: 2773 453e b139 a53c f71e 983d 83fe 27be
00000020: 67b3 2bbe 9c6a 463c 0421 18be 4c9e 11be
00000030: a272 31bd 1e64 0d3e 22b5 cabc 0ac4 023e
00000040: 1002 14be 9416 05be 73fd 9bbd 4ee1 56bd
00000050: a8e7 9fbd 7ec8 c33d 4b58 473e c032 1ebe
00000060: 27f3 153e d6a5 3dbd f12f 223d fc92 553d
00000070: 08a6 94bd acdb 15bd 6d9c 773c 1e09 a43d
00000080: a8a1 04be fdee 1abe a6a7 1dbe 202c bc3c
00000090: c0a2 383e 2ec8 253d b2fd a6bd 43e5 553d
000000a0: 1365 3f3e 01f6 0f3e 8035 59bd 443a 1bbe
000000b0: c1a5 6dbc 9aaa e93d cda8 3abe c6e0 83bd
000000c0: 733d 5a3d 60d2 0dbe 94e8 ea3a e26a bc3d
000000d0: 7a06 003e 5f37 d73d d391 b1bd b6c4 86bd
000000e0: f5a4 903d f22e ee3d be9c 9fbd faf8 4ebd
000000f0: 5aeb 97bd b089 28be 6937 5f3d 492c f6bd
00000100: 4604 f73d 94c1 a83d ab82 b939 1c68 8d3d
00000110: 4dcf 23be 671d b63d 316f 923d 6c49 b73c
00000120: f6ac fcbb d792 4cbd 3b65 16bc c60d 7b3d
00000130: 8736 2bbe ce3f 263d 32a4 ecbd b329 353e
00000140: 960a 103d 34b0 183d 4fc2 7b3d f66f bcbc
00000150: 7ed3 313d 989f 2f3e d526 d5bd e893 da3d
00000160: 59cd 1abe 8500 69bd 81d6 68bd c54d 20be
00000170: 4dbb 153e a67a 3bbd 8a4b 5cbc 3cf5 8c3d
00000180: 3103 c93b 490d 3b3c 19c3 8abd 0fa0 ee3d
00000190: e44a aebd f271 3d3e c9b0 b1bd 005d 34bc
000001a0: 5d9c 273d ab8b 9bbd eed7 eabd 5fac 29be
000001b0: 776e f43d b4b0 97bd 94d9 693d fe84 a33c
000001c0: 8efc e43c 8d6a c03d 0f90 283e 6ef1 3f3e
000001d0: 0288 07be b7b3 20be b11e 173e 1835 4d39
000001e0: 0d35 223e 5e10 143e d00a acbd 4677 0ebe
000001f0: d3d0 2dbe 7199 13be 178e ddbd 52f1 a83d
00000200: 590d d53d 6ac8 b73c f11a 253e 0bf1 bdbc
00000210: b579 143e bf34 b23b e2d3 17be 2502 11be
00000220: abb2 12be b41e d2bd 026c 29bc e4d1 7fba
00000230: ba35 b2bc 0dfd debb dd5d 2b3e cd80 183e
00000240: 8db5 21be 3aec 1c3d fb9e 0b3e 8175 1cbe
00000250: 3dd8 77bd d1c0 d23d 6c4d 42bd 8aa0 3b3e
00000260: c380 56bc e88b 1e3e 0bff 3abd a603 16be
00000270: a148 f93d 33ee 273d aa96 353e de38 30bb
00000280: 9ab7 1f3e f41c 7b3d 8bf0 af3c 4934 1e3e
00000290: 2f7a 2cbe b987 ee3d 0766 873c 4432 c2bd
000002a0: 490a 52bd 411e cdbd 4bd9 c73d cb50 27be
000002b0: 2654 1ebd 6890 95bd 9e28 aabd f220 283e
000002c0: d8b3 1a3e e036 03be cdbb c4bd 26d9 4dbc
000002d0: 9a7d 17be 4603 49be cc0b 61bd 0eff 51bd
000002e0: e0fd 0dbd 88d4 d03d 84de fab8 a6b2 6a3c
000002f0: 0bac 783d 830f c73d b5f0 f53d b509 973d
00000300: 08de 95bd 1704 05be 2b02 1a3e 75cd f8bd
00000310: a708 2bbe 8b86 8cbd 59c1 80bd 42c3 913d
00000320: 1cd7 d63d 24d4 d5bd 891e 9abd 0a8d 8abd
00000330: 82aa d63d d816 5b3c d716 a8bd 4480 4fbd
00000340: a97d 3fbd 86da 343e 7a96 773d 6140 a6bd
00000350: b22f a9bb 5c3a 803d 8f1b f0bd d414 c5bd
00000360: d726 fb3d 6ddd 46bc 55e8 21bc 3217 72bd
00000370: ffac 0d3e 169e e1bd 0b98 13be fbd5 0ebe
00000380: 9c61 c03d 3fb4 533d 46e1 1c3e 7892 90bd
00000390: bf15 5f3d 4668 12be 819b 10be 33dd dd3d
000003a0: 3786 1c3c 1d7d b9bd 30da f23d ac54 8c3d
000003b0: 7551 2cbe 4ce9 173e 2c46 f13c a1d9 9b3c
000003c0: d3c3 2fbe fc56 e53d 4f16 08be 1a7f 783d
000003d0: 96ef 30be d3de 0a3e 8689 883b b417 eaba
000003e0: b5da cd3d 9fba 043d 122a 09be 1325 c93d
000003f0: 9809 8f39 ad7f 1a3e 0316 89bd 4ff3 b7bd

layer.self_attn.out_proj.bias f4 [32]
0.020281913 0.017982673 -0.014297496 0.013866062 0.019902628 -0.02017481 -0.015670152 0.019861532
0.019551631 0.016400915 -0.020128828 0.0019012225 -0.018423282 -0.019675218 -0.01954694 0.006636033
-0.018661646 -0.02004213 0.01765315 -0.020400958 -0.00327877 0.018145453 0.0012649149 0.0018102461
0.019934583 -0.020580009 0.015128116 -0.013647323 -0.011219411 0.0132937385 0.020654399 -0.015293615
00000000: 4126 a63c 6650 933c 0b40 6abc 7b2e 633c
00000010: d60a a33c a545 a5bc b15e 80bc a7b4 a23c
00000020: be2a a03c 365b 863c 36e5 a4bc 7132 f93a
00000030: 6cec 96bc ec2d a1bc e820 a0bc 1473 d93b
00000040: 4fe0 98bc 652f a4bc 579d 903c e91f a7bc
00000050: a2e0 56bb c6a5 943c 80cb a53a c845 ed3a
00000060: da4d a33c 6897 a8bc ebdb 773c 0599 5fbc
00000070: 9fd1 37bc fbcd 593c 6a33 a93c 1292 7abc

layer.linear1.weight f4 [128, 32]
0.06419436 0.15974994 -0.13422126 0.039679978 0.08599066 0.0510729 0.1735323 0.12617046
-0.055201195 0.12946592 0.071818516 -0.17529798 0.1716015 0.04398925 0.15043941 0.088283375
0.0127147725 -0.1606053 0.013770295 -0.0066884477 -0.07651034 0.022739727 -0.015741425 -0.05460868
-0.017668856 -0.16620766 -0.14113022 -0.0715157 0.1850884 -0.118711516 0.033814326 -0.14458999
0.021210374 -0.112758 0.14885077 -0.11880033 0.09265708 0.03208757 0.046085726 -0.1613563
-0.030337011 -0.010139415 0.037571516 0.10891842 -0.1464869 -0.16331685 -0.13545585 -0.16562152
-0.15421377 -0.18621698 0.031859674 -0.0057183458 0.0045367335 -0.08753043 -0.12058299 -0.05327059
-0.02432317 0.053935286 -0.03668499 0.054773692 -0.07289156 0.019473864 -0.057226866 -0.11998767
0.1720238 -0.18122892 0.011483279 -0.10966709 0.17440973 0.053631224 -0.05714638 0.060521916
-0.05312452 0.004175448 -0.16717608 -0.10972324 0.15343538 0.12535195 0.15636474 0.06662961
-0.04811306 -0.1652482 -0.022211395 -0.12305096 -0.160219 -0.08211685 0.16598022 -0.16652492
0.12486351 -0.15334415 0.07601747 -0.088866815 0.18613757 0.061252188 -0.1389408 -0.09543374
-0.025349416 0.05991238 0.05192061 0.096332945 0.022051595 -0.010956602 0.058389433 0.029816508
0.09266511 0.07466844 -0.09619561 -0.14762478 -0.050730616 0.10253507 -0.032511294 -0.015498899
-0.030800344 0.17252557 -0.1295083 0.012432702 0.00670388 0.15199399 -0.11140082 0.17231752
-0.024894854 -0.056738168 0.06230662 0.06386044 -0.07574667 0.14421566 0.13789175 -0.13933475
-0.10365039 -0.15772301 -0.15687545 0.12919827 0.18245228 -0.13507244 0.07484136 -0.14416333
0.020772155 0.098196894 -0.17528313 0.03690292 0.15440935 -0.14928973 -0.082853794 0.11234487
-0.1519037 -0.1818092 0.020985799 -0.13522004 -0.12845312 -0.13811009 0.14901634 -0.19257414
-0.061775487 -0.065775186 0.102200754 -0.095631406 -0.097247615 -0.15116674 -0.0057600075 -0.17572115
-0.013932727 0.13475844 0.11843002 -0.06841016 0.017949216 -0.13381636 -0.1284802 0.0036484818
0.1774589 -0.14398636 -0.07155995 -0.042529397 -0.10281102 0.044393033 0.098071046 -0.05351998
-0.030874085 -0.15197213 -0.08735813 0.07175752 -0.15961114 -0.17157881 -0.116229564 -0.006424258
-0.10970632 -0.017108344 -0.013740543 -0.05545477 -0.07445853 -0.05180704 0.11533442 0.15661836
0.065363884 -0.16627985 0.041516226 0.045361917 0.021560414 -0.0185076 0.0486923 0.1311112
0.07106477 -0.14729792 0.14350705 0.031877484 0.057639692 0.15440449 -0.16754088 -0.112549715
0.04539756 -0.014954939 -0.10182455 0.06996954 -0.18829198 0.046111554 0.1063927 -0.06366463
-0.10414526 -0.046939593 -0.109752394 0.109358616 -0.05345383 0.10367103 0.11346702 -0.14056645
0.08474034 0.17571689 0.028692383 -0.010650641 0.03492877 0.16470645 0.07455012 0.05939586
0.1391992 -0.13130906 0.032488115 0.14768015 0.17864016 -0.057067994 0.1453934 0.004861295
-0.07546444 0.018977763 -0.09476031 -0.1437874 0.18845698 0.110066704 0.13807563 -0.10093468
-0.081913605 0.07355075 -0.105297014 -0.1186811 -0.14827403 0.010933357 0.12472619 -0.1669991
00000000: 5578 833d 7d95 233e 4c71 09be 7987 223d
00000010: df1b b03d d131 513d 74b2 313e d432 013e
00000020: a61a 62bd b792 043e 9615 933d 5081 33be
00000030: 4eb8 2f3e 122e 343d ca0c 1a3e eacd b43d
00000040: 9f51 503c b775 24be ce9c 613c c42a dbbb
00000050: 74b1 9cbd aa48 ba3c 29f4 80bc 5aad 5fbd
00000060: 47be 90bc 5732 2abe 7184 10be d376 92bd
00000070: d087 3d3e 061f f3bd e480 0a3d 660f 14be
00000080: 61c1 ad3c abed e6bd 566c 183e 964d f3bd
00000090: ffc2 bd3d 416e 033d 63c4 3c3d 963a 25be
000000a0: 5385 f8bc ca1f 26bc 97e4 193d 9f10 df3d
000000b0: a900 16be 883c 27be f0b4 0abe b098 29be
000000c0: 37ea 1dbe aaaf 3ebe 4a7f 023d f660 bbbb
000000d0: e1a8 943b 2743 b3bd 37f4 f6bd 4332 5abd
000000e0: 6241 c7bc 3feb 5c3d 0043 16bd 615a 603d
000000f0: 2c48 95bd a787 9f3c b866 6abd 18bc f5bd
00000100: 0227 303e 1394 39be 5d24 3c3c 2499 e0bd
00000110: 7798 323e 6aac 5b3d 5312 6abd d4e5 773d
00000120: 1999 59bd 32d2 883b 3530 2bbe 94b6 e0bd
00000130: 2a1e 1d3e 435c 003e 141e 203e 1b75 883d
00000140: 3312 45bd d336 29be acf4 b5bc 2402 fcbd
00000150: 7310 24be e12c a8bd b8f6 293e 8285 2abe
00000160: 71b8 ff3d 4006 1dbe 0caf 9b3d ceff b5bd
00000170: d99a 3e3e 93e3 7a3d 7f46 0ebe c472 c3bd
00000180: 94a9 cfbc af66 753d b5aa 543d 354a c53d
00000190: 8ca5 b43c 5283 33bc c229 6f3d c041 f43c
000001a0: 35c7 bd3d c4eb 983d 3402 c5bd f32a 17be
000001b0: e8ca 4fbd e8fd d13d 902a 05bd 18ef 7dbc
000001c0: 0151 fcbc 8baa 303e d39d 04be 88b2 4b3c
000001d0: 39ac db3b 50a4 1b3e 1d26 e4bd 0174 303e
000001e0: 4bf0 cbbc 4866 68bd 3a35 7f3d 43c9 823d
000001f0: 1221 9bbd 45ad 133e 7f33 0d3e c5ad 0ebe
00000200: a846 d4bd 2482 21be f5a3 20be 8d4c 043e
00000210: c5d4 3a3e 6e50 0abe 6d46 993d 8d9f 13be
00000220: 5e2a aa3c 741b c93d 6c7d 33be 8427 173d
00000230: 7c1d 1e3e 68df 18be 40af a9bd 1115 e63d
00000240: a58c 1bbe 312c 3abe 69ea ab3c 1f77 0abe
00000250: 3789 03be bb6c 0dbe bd97 183e 2832 45be
00000260: 4b08 7dbd 24b5 86bd a14e d13d 66da c3bd
00000270: c229 c7bd 74cb 1abe 72be bcbb 3ff0 33be
00000280: 1846 64bc 1efe 093e 708b f23d a01a 8cbd
00000290: 3c0a 933c 2807 09be 5090 03be 5e1b 6f3b
000002a0: c9b7 353e 2971 13be 068e 92bd 4e33 2ebd
000002b0: 968e d2bd 78d5 353d 79d9 c83d c437 5bbd
000002c0: a6eb fcbc 959e 1bbe d2e8 b2bd 9bf5 923d
000002d0: 1a71 23be 5bb2 2fbe c409 eebd 9582 d2bb
000002e0: b5ad e0bd cc26 8cbc 0420 61bc 8a24 63bd
000002f0: b77d 98bd 9e33 54bd 7434 ec3d 9060 203e
00000300: 80dd 853d 4445 2abe eb0c 2a3d 6bcd 393d
00000310: 779f b03c 409d 97bc 9471 473d 0442 063e
00000320: 688a 913d 44d5 16be 83f3 123e f791 023d
00000330: 9917 6c3d 361c 1e3e d68f 2bbe 7780 e6bd
00000340: cbf2 393d 8f05 75bc 6489 d0bd 314c 8f3d
00000350: 9dcf 40be 78df 3c3d 6ae4 d93d 9a62 82bd
00000360: 1c4a d5bd bb43 40bd ddc5 e0bd 69f7 df3d
00000370: 67f2 5abd 7a51 d43d 6661 e83d a7f0 0fbe
00000380: 588c ad3d 21ef 333e 4a0c eb3c 0780 2ebc
00000390: 7811 0f3d cfa8 283e bcad 983d 1349 733d
000003a0: 3c8a 0e3e e275 06be 4212 053d 7739 173e
000003b0: 72ed 363e 21c0 69bd 02e2 143e 804b 9f3b
000003c0: 1a8d 9abd 4177 9b3c b211 c2bd 013d 13be
000003d0: defa 403e a76a e13d b363 0d3e d7b6 cebd
000003e0: 52c2 a7bd c7a1 963d f6a5 d7bd 140f f3bd
000003f0: 26d5 17be d321 333c 7270 ff3d d001 2bbe

layer.linear1.bias f4 [128]
-0.010970328 -0.16132559 0.06584654 0.16874911 0.03913156 -0.15494305 -0.026106922 -0.12827852
-0.11772412 0.16391732 -0.15427855 -0.11665063 0.11967802 -0.09396111 0.096325055 -0.091330655
0.19278118 0.17360626 0.03740015 -0.06800932 0.18281555 0.0021912856 0.0063079423 -0.10224547
0.11241161 0.12706535 -0.0973103 -0.031778943 0.19680236 -0.08069935 -0.10274241 0.10145201
-0.10958456 0.05577769 -0.0035771246 0.15062104 -0.091685385 -0.17600565 -0.029177282 0.10467627
-0.08792981 -0.051935077 -0.08926651 -0.03924799 -0.09043281 -0.06012202 0.05505956 -0.15670593
-0.03960641 0.06637649 0.16926357 0.095649466 -0.117878765 0.14793159 -0.119235486 -0.0673934
-0.15148355 0.08580347 0.14366479 0.046549913 -0.023217265 0.032287385 -0.11599236 0.07279702
-0.00010615727 -0.054809146 0.1567811 0.10007759 -0.06546615 -0.05364185 -0.0029611737 -0.09791788
0.14790867 0.14062193 -0.09058023 0.096418135 -0.10773517 -0.043996014 -0.089976646 0.1163325
0.1148203 -0.015003116 0.076333806 -0.08817245 -0.031201953 0.025249476 0.011350897 0.04089228
-0.07536428 0.10646501 -0.15447757 0.036095828 -0.05351636 0.06688927 -0.108757585 0.040700015
0.0495324 -0.14328605 0.13760018 0.10456766 -0.040235553 0.17873424 0.08498281 0.028366655
-0.004543893 -0.124021195 0.01683551 -0.14484105 0.06461242 0.15886275 -0.13836196 0.04309269
0.081878364 -0.027354823 -0.14997774 -0.09961917 0.14819837 -0.07164088 -0.15373477 0.097709715
-0.10467096 0.018390177 0.13557543 -0.05928158 -0.03523066 -0.095003575 -0.058572143 0.1234496
00000000: e4bc 33bc 8932 25be 8dda 863d 91cc 2c3e
00000010: 6a48 203d 64a9 1ebe 2fde d5bc 725b 03be
00000020: 5819 f1bd f1d9 273e 32fb 1dbe 87e6 eebd
00000030: c019 f53d af6e c0bd 1246 c53d 910b bbbd
00000040: 6e68 453e d7c5 313e e630 193d 7848 8bbd
00000050: 0034 3b3e ac9b 0f3b dbb2 ce3b 1366 d1bd
00000060: 0f38 e63d 6b1d 023e 9f4a c7bd a32a 02bd
00000070: 8f86 493e b345 a5bd 9d6a d2bd 12c6 cf3d
00000080: df6d e0bd 2677 643d 316e 6abb 673c 1a3e
00000090: 8cc5 bbbd d33a 34be 3205 efbc 8360 d63d
000000a0: 8b14 b4bd e0b9 54bd 5cd1 b6bd 80c2 20bd
000000b0: d634 b9bd 8242 76bd 2286 613d 8577 20be
000000c0: 553a 22bd 66f0 873d 6e53 2d3e dee3 c33d
000000d0: 6c6a f1bd 617b 173e bc31 f4bd 8d05 8abd
000000e0: 811e 1bbe bbb9 af3d dd1c 133e 1fab 3e3d
000000f0: 2232 bebc c73f 043d 678d edbd 9b16 953d
00000100: c0a0 deb8 8e7f 60bd 3a8b 203e 7bf5 cc3d
00000110: 1e13 86bd 8eb7 5bbd 4010 42bb 2b89 c8bd
00000120: 5f75 173e 32ff 0f3e 2182 b9bd df76 c53d
00000130: 42a4 dcbd 2a35 34bd ad45 b8bd bc3f ee3d
00000140: e826 eb3d a1cf 75bc e654 9c3d c293 b4bd
00000150: 3d9b ffbc fdd7 ce3c 1df9 393c aa7e 273d
00000160: 9658 9abd 540a da3d 5e2f 1ebe 38d9 133d
00000170: f933 5bbd 3efd 883d 4cbc debd 0fb5 263d
00000180: 7ce2 4a3d 94b9 12be 10e7 0c3e 9227 d63d
00000190: 09ce 24bd 1c06 373e 780b ae3d 3061 e83c
000001a0: f0e4 94bb d3fe fdbd a0ea 893c 3651 14be
000001b0: 8453 843d ebac 223e c2ae 0dbe f681 303d
000001c0: d8af a73d 3917 e0bc c493 19be 2305 ccbd
000001d0: 50c1 173e 74b8 92bd a66c 1dbe 081c c83d
000001e0: ba5d d6bd ffa6 963c 49d4 0a3e 3ed1 72bd
000001f0: 064e 10bd 3c91 c2bd 58e9 6fbd 25d3 fc3d

layer.linear2.weight f4 [32, 128]
-0.040909883 0.00047262048 0.026857011 0.08314992 0.067009516 -0.01264888 0.046400636 0.021490263
0.09071769 0.005540105 0.060395326 -0.063568845 -0.05200057 0.046943016 0.04218394 -0.02335054
-0.02190349 -0.028572042 -0.01589495 -0.046263978 -0.07988284 0.08537866 -0.026364215 -0.013464669
0.08443946 0.070494875 -0.038645204 0.00019636552 0.030524908 -0.093043365 0.03980613 -0.092232294
-0.038924992 0.04353582 0.020562539 0.053342167 0.018210791 -0.055275094 0.0050294814 0.011879678
-0.024978729 -0.034025732 -0.046714306 -0.039554164 -0.04773 -0.10736419 -0.07789 -0.054484803
-0.052188855 -0.018260095 -0.0063761906 -0.05008289 0.10573149 0.10331819 -0.011108084 0.09627993
-0.006028133 0.032329388 0.038043704 -0.00071560516 -0.1012243 -0.103207186 -0.043455973 0.083047785
0.010015177 0.043460056 0.07290389 0.080294654 -0.018630084 -0.07325964 -0.05777119 0.08261116
0.07014717 -0.033488914 -0.016799442 -0.06554726 -0.014141662 -0.012386472 0.014542477 -0.05497372
-0.07702734 0.037858214 0.011641603 -0.009730408 0.013204593 -0.09108821 0.011216757 0.030961215
-0.038043223 0.09066052 -0.003938119 -0.04818279 0.091022186 -0.036245342 0.029849 -0.04278291
0.032187246 -0.012480688 -0.052214645 -0.067166805 -0.052909035 -0.058254004 -0.044122368 0.04081156
-0.04589333 0.058010217 -0.020274116 0.017025862 -0.0396868 0.03876953 -0.023893604 0.05272248
-0.10453575 -0.0009041061 0.012531076 0.03028195 0.043941587 -0.044141214 -0.04445062 0.0408799
0.037272695 0.0052882535 -0.0451355 0.10268843 -0.043877393 0.040049084 -0.07431994 -0.07168692
-0.059132423 -0.08396666 0.050184272 0.011735757 0.10321026 -0.08922084 0.046862982 0.028822111
0.035821207 -0.052187316 -0.03583423 -0.04098941 0.05224998 -0.026208337 -0.091052935 0.09113639
0.10038111 -0.056454085 -0.07705829 0.022130528 -0.0018407106 0.022567434 0.03593489 0.013908875
0.039576944 -0.053932976 0.06673105 -0.04226449 0.012311445 0.054379523 -0.06341444 -0.087121576
0.07625161 0.031135244 0.039659165 0.05477243 -0.10641428 -0.051846396 -0.078626834 -0.041018743
-0.005945225 0.09428773 0.04973853 0.06063 0.021979118 0.02439599 -0.10279807 0.034294806
-0.067653485 -0.055133145 -0.040007953 -0.052033953 0.027752535 -0.045527976 -0.043679036 0.003787883
-0.008995032 -0.053590897 -0.0028124086 -0.012897288 -0.037686355 -0.09287929 0.017173316 -0.059238657
-0.011318527 0.035393283 0.07725903 0.02714151 -0.009656068 0.03545362 -0.045643836 0.0011015387
-0.06899964 0.011430016 -0.030913193 -0.031461023 -0.03698656 0.031972703 0.09496314 0.103681594
-0.046747535 -0.000870354 0.066477925 -0.024261627 0.020078095 -0.03154662 -0.010985312 -0.029261982
-0.006502387 0.056841154 0.06323378 0.028942944 0.041054618 -0.024461454 0.02879419 -0.06051514
-0.053084973 -0.043328416 0.040591612 0.026675113 -0.0062056817 -0.052034523 0.060016274 0.030420065
-0.04236918 -0.020263826 -0.04719699 -0.072687 -0.092082545 -0.07064219 -0.06891178 -0.013352675
-0.04066481 -0.040205244 0.010878213 -0.04929532 0.0695943 -0.036747318 -0.10333312 -0.077983126
-0.08388654 -0.018308258 0.04830224 0.056006603 0.0013444398 0.086665444 -0.08696784 -0.05284616
00000000: 1f91 27bd 0cca f739 3c03 dc3c 814a aa3d
00000010: 493c 893d 3f3d 4fbc 980e 3e3d 590c b03c
00000020: 32ca b93d c589 b53b 1761 773d 6230 82bd
00000030: 8dfe 54bd 5247 403d 11c9 2c3d a249 bfbc
00000040: f36e b3bc ea0f eabc 2036 82bc 4c7f 3dbd
00000050: 9d99 a3bd 02db ae3d c4f9 d7bc ea9a 5cbc
00000060: 98ee ac3d 9e5f 903d 6f4a 1ebd 78e7 4d39
00000070: 5f0f fa3c 858d bebd c10b 233d 49e4 bcbd
00000080: d06f 1fbd 9e52 323d c572 a83c 517d 5a3d
00000090: cc2e 953c 2368 62bd 59ce a43b fba2 423c
000000a0: 31a0 ccbc 915e 0bbd 8057 3fbd 8c03 22bd
000000b0: 8880 43bd c2e1 dbbd cb84 9fbd 752b 5fbd
000000c0: fbc3 55bd 3296 95bc 5def d0bb b723 4dbd
000000d0: c089 d83d 7d98 d33d aefe 35bc 692e c53d
000000e0: a587 c5bb d26b 043d b7d3 1b3d 7397 3bba
000000f0: b04e cfbd 4a5e d3bd e4fe 31bd f514 aa3d
00000100: b216 243c 2c03 323d a24e 953d 8671 a43d
00000110: 1e9e 98bc 2609 96bd 7ca1 6cbd 0a30 a93d
00000120: 52a9 8f3d ac2b 09bd fc9e 89bc a43d 86bd
00000130: 6eb2 67bc a1f0 4abc 9243 6e3c 202c 61bd
00000140: 83c0 9dbd 3711 1b3d 6cbc 3e3c 4a6c 1fbc
00000150: 1458 583c 758c babd 7dc6 373c 60a2 fd3c
00000160: 36d3 1bbd 39ac b93d 560b 81bb 515b 45bd
00000170: d769 ba3d ff75 14bd e485 f43c 223d 2fbd
00000180: c6d6 033d cd7b 4cbc 06df 55bd c08e 89bd
00000190: 25b7 58bd c09b 6ebd a8b9 34bd 062a 273d
000001a0: a5fa 3bbd 1f9c 6d3d e715 a6bc d279 8b3c
000001b0: a08e 22bd cccc 1e3d 85bc c3bc 87f3 573d
000001c0: d716 d6bd 8901 6dba 244f 4d3c da11 f83c
000001d0: 18fc 333d 6bcd 34bd da11 36bd af71 273d
000001e0: 41ab 183d 1649 ad3b 01e0 38bd 504e d23d
000001f0: c8b8 33bd 820a 243d 0d35 98bd 98d0 92bd
00000200: d734 72bd b6f6 abbd 068e 4d3d 5547 403c
00000210: e75f d33d 6ab9 b6bd 66f3 3f3d 591c ec3c
00000220: 42b9 123d 5ec2 55bd eac6 12bd 83e4 27bd
00000230: 1304 563d deb2 d6bc f679 babd b7a5 ba3d
00000240: 9d94 cd3d 663c 67bd bdd0 9dbd 154b b53c
00000250: 0044 f1ba 57df b83c 7730 133d 0de2 633c
00000260: 6f1b 223d d3e8 5cbd 4aaa 883d 881d 2dbd
00000270: f1b5 493c 10bd 5e3d 6edf 81bd cc6c b2bd
00000280: ce29 9c3d 570f ff3c a671 223d 0e59 603d
00000290: bbef d9bd e35c 54bd 1b07 a1bd 4503 28bd
000002a0: 29d0 c2bb ed19 c13d a1ba 4b3d 2a57 783d
000002b0: 8d0d b43c 19da c73c cb87 d2bd b678 0c3d
000002c0: e98d 8abd 4bd3 61bd 61df 23bd 8e21 55bd
000002d0: 4959 e33c 8b7b 3abd cae8 32bd 223e 783b
000002e0: e65f 13bc 2182 5bbd 6350 38bb 264f 53bc
000002f0: 025d 1abd 7f37 bebd 0eaf 8c3c 3ca4 72bd
00000300: 5871 39bc 8cf8 103d fb39 9e3d df57 de3c
00000310: 7c34 1ebc d137 113d 08f5 3abd 8161 903a
00000320: af4f 8dbd f644 3b3c aa3d fdbc 46dd 00bd
00000330: 387f 17bd cff5 023d 097c c23d 0457 d43d
00000340: 587a 3fbd 7828 64ba 9425 883d 52c0 c6bc
00000350: d17a a43c 0737 01bd bdfb 33bc d3b6 efbc
00000360: fa11 d5bb 45d2 683d b680 813d c119 ed3c
00000370: e328 283d 6363 c8bc cbe1 eb3c b9de 77bd
00000380: a16f 59bd 2379 31bd 6443 263d c485 da3c
00000390: 0859 cbbb 2722 55bd a0d3 753d 8033 f93c
000003a0: 4e8b 2dbd 5300 a6bc a251 41bd ecdc 94bd
000003b0: c695 bcbd daac 90bd 9f21 8dbd 2ec5 5abc
000003c0: 2590 26bd 41ae 24bd 883a 323c e4e9 49bd
000003d0: 7587 8e3d 5b84 16bd 51a0 d3bd 9eb5 9fbd
000003e0: b5cc abbd 33fb 95bc 92d8 453d 2e67 653d
000003f0: ea37 b03a a77d b13d 321c b2bd 3775 58bd

layer.linear2.bias f4 [32]
0.03099285 0.0875531 0.028674476 -0.052285146 -0.06688411 -0.09362304 -0.07851205 -0.039104555
-0.02895275 0.03636121 0.01775126 0.030519908 0.04254745 -0.0007800785 -0.05992777 0.024207348
-0.017212968 -0.03386835 0.06372916 0.06544441 -0.08046072 0.07206564 0.0021201763 0.01527528
0.07712412 0.056437947 -0.03462736 0.035197496 0.007892819 0.08185633 0.038949866 0.053134453
00000000: b8e4 fd3c 0a4f b33d bce6 ea3c f328 56bd
00000010: 89fa 88bd 70bd bfbd edca a0bd 192c 20bd
00000020: 512e edbc 7eef 143d 176b 913c e304 fa3c
00000030: 3c46 2e3d 2f7e 4cba d276 75bd 7d4e c63c
00000040: 3602 8dbc 8ab9 0abd 6f84 823d b807 863d
00000050: 97c8 a4bd 2697 933d a8f2 0a3b 2b45 7a3c
00000060: 40f3 9d3d 7a2b 673d 6bd5 0dbd 402b 103d
00000070: e250 013c 4ba4 a73d e589 1f3d 83a3 593d

layer.norm1.weight f4 [32]
0.99614704 1.020374 1.0206597 1.0072663 1.0207338 1.0192788 1.0089481 0.9885236
0.98403674 1.018883 1.0200322 1.0047516 0.98377085 1.0190128 1.0178956 1.0027972
1.0203393 1.0198787 1.0206485 1.012922 1.0201664 1.0174397 1.0099081 1.0204825
1.0195496 1.0200019 0.9929953 1.0200332 1.0206288 1.0034448 1.0205191 0.9875602
00000000: 7e03 7f3f 9d9b 823f faa4 823f 1aee 803f
00000010: 68a7 823f ba77 823f 3625 813f e20f 7d3f
00000020: d5e9 7b3f c26a 823f 6a90 823f b39b 803f
00000030: 68d8 7b3f 036f 823f 674a 823f a95b 803f
00000040: 7a9a 823f 638b 823f 9ca4 823f 6ea7 813f
00000050: d094 823f 773b 823f ab44 813f 2c9f 823f
00000060: 9a80 823f 6c8f 823f f134 7e3f 7390 823f
00000070: f7a3 823f e170 803f 5fa0 823f bfd0 7c3f

layer.norm1.bias f4 [32]
0.015451308 -0.018227493 0.019549899 -0.011295462 0.01259842 -0.019333554 0.018449321 0.019022977
-0.0016310613 -0.016565537 -0.018195335 0.014838552 -0.018847374 0.011011099 0.020614026 -0.019202016
0.0028670894 0.007821808 -0.015990363 -0.017617626 -0.018831046 0.016056566 -0.009694735 0.018630583
-0.011182718 -0.013108288 -0.0009841757 0.017469844 -0.019760434 -0.019414453 -0.014811239 0.014701672
00000000: 7c27 7d3c d351 95bc 1c27 a03c 9a10 39bc
00000010: 9a69 4e3c 6761 9ebc 0823 973c 13d6 9b3c
00000020: 56c9 d5ba 73b4 87bc 620e 95bc 661d 733c
00000030: cf65 9abc e667 343c bfde a83c 8c4d 9dbc
00000040: c7e5 3b3b 0a27 003c 39fe 82bc d752 90bc
00000050: 9143 9abc 0f89 833c aad6 1ebc 2a9f 983c
00000060: b837 37bc 25c4 56bc 75ff 80ba eb1c 8f3c
00000070: a2e0 a1bc 0f0b 9fbc d7aa 72bc 48df 703c

layer.norm2.weight f4 [32]
1.0044615 1.0205188 1.0207807 1.006051 1.0141274 1.0205264 1.0152409 1.0120957
1.0032369 0.9986511 1.009635 1.0067145 1.0208092 1.0198812 1.0087441 1.0200595
1.0205708 0.99632823 1.0067092 0.998855 1.0206645 1.0206647 1.0207881 1.0199453
1.0143286 1.0205295 1.0204415 1.0116127 1.0207614 1.0206344 1.0167419 1.0174831
00000000: 3292 803f 5ca0 823f f1a8 823f 47c6 803f
00000010: edce 813f 9ca0 823f 6af3 813f 5a8c 813f
00000020: 116a 803f 99a7 7f3f b83b 813f 05dc 803f
00000030: e0a9 823f 788b 823f 871e 813f 4f91 823f
00000040: 10a2 823f 5e0f 7f3f d9db 803f f6b4 7f3f
00000050: 22a5 823f 24a5 823f 2fa9 823f 918d 823f
00000060: 85d5 813f b6a0 823f d49d 823f 867c 813f
00000070: 4fa8 823f 26a4 823f 9924 823f e33c 823f

layer.norm2.bias f4 [32]
0.02001693 0.0202947 0.018748369 0.018351525 0.02091331 -0.02055598 -0.020489365 -0.0029126685
-0.020061625 0.014282473 -0.020365344 0.0205149 0.019878289 -0.0138608245 -0.018202988 0.01699017
-0.020589989 0.001244275 0.011392857 -0.020791674 0.008719897 0.017852103 0.018459221 -0.0050979727
0.01909916 0.009791285 0.0036453353 -0.013926987 -0.020542067 0.012819807 0.019922415 0.006592965
00000000: 8bfa a33c 1241 a63c 2e96 993c f055 963c
00000010: 6452 ab3c 0465 a8bc 50d9 a7bc 78e2 3ebb
00000020: 4758 a4bc 0901 6a3c 39d5 a6bc dd0e a83c
00000030: cbd7 a23c 8318 63bc 6f1e 95bc f82e 8b3c
00000040: 56ac a8bc f116 a33a 1ba9 3a3c 4d53 aabc
00000050: e6dd 0e3c 933e 923c cb37 973c e50c a7bb
00000060: d775 9c3c a06b 203c 94e6 6e3b 042e 64bc
00000070: d647 a8bc 2b0a 523c 5534 a33c cd09 d83b
