checkpoints/exp-semantic.pt (torch, 199581 bytes, 15 tensors)

pos_embedding f4 [1, 64, 32]
000000 7f 22 9e 3c 3e 15 97 3c 6d 16 9f 3c 26 fa 3c bc
       0.019303558 0.018442746 0.019419873 -0.011534249
000010 db 7d 94 bc 4a db 98 bc 2a a8 a3 bc df 31 48 bc
       -0.018126419 -0.018659253 -0.019977648 -0.012218921
000020 10 c9 99 3c 6f 4e a1 bc 49 be 68 bb 97 52 93 3c
       0.018772632 -0.01969072 -0.003551381 0.017983718
000030 5f 9e 61 ba 66 81 90 3c 3e e2 7a 3c fc fb 9d bc
       -0.0008606668 0.017639827 0.015312729 -0.019285195
000040 42 ab 93 3c bf 57 9d bc 77 c0 94 bc de 57 98 3c
       0.018025998 -0.01920688 -0.01815818 0.018596586
000050 9e 8a 44 3c 57 de a1 3c 89 e4 89 bc 0f e6 9b bc
       0.01199594 0.01975934 -0.016832607 -0.019030599
000060 30 2f a0 3c f1 9d 92 bc 24 5c 9c bc eb 13 97 3c
       0.01955375 -0.017897578 -0.019086905 0.018442115
000070 fb df bd bb 1c 88 9e 3c d6 e8 98 3c 29 96 44 3c
       -0.005794523 0.019352011 0.018665712 0.011998692
000080 fb 6c 19 3c c9 a1 0a bc eb d6 21 3c 06 96 67 3c
       0.009364362 -0.008461424 0.009877901 0.0141348895
000090 b4 f3 d7 3b bc 7a 62 3c 7e dc 54 bc bd 76 07 bc
       0.006590331 0.0138232075 -0.012992023 -0.0082680555
0000a0 32 98 38 bc 57 2f 25 ba 2f b9 6c bb b7 5d a0 3b
       -0.011266755 -0.00063013047 -0.003612112 0.004893984
0000b0 e8 78 8e 3c 19 60 1f 3c d6 73 29 3b dd df 95 bb
       0.017391637 0.009727501 0.0025856397 -0.0045738057
0000c0 f0 3b 1e bc f8 c2 89 3c 57 84 07 3c 1f 3b 89 3c
       -0.009657845 0.016816601 0.008271298 0.016751824
0000d0 5b 6b ec bb 77 12 7b bc e1 e7 60 3c 54 0d 1c 3c
       -0.007214946 -0.015324227 0.013727159 0.009524662
0000e0 10 88 6d bc 4d 3b c6 3b cd 0d 59 bc 8d f9 56 bc
       -0.014497772 0.0060495497 -0.013247919 -0.013121021
0000f0 57 4d 64 bc 85 b5 38 3c cb 73 ed bb c5 ab 07 3c
       -0.013934455 0.011273746 -0.0072464696 0.008280699
000100 e5 da 23 bc 33 16 4d 3c 0e 5a bf 3b 9d 43 9c 3a
       -0.010000919 0.0125175 0.005839593 0.0011922006
000110 8b 46 ee bb 14 81 ba 38 30 c5 16 3b 5f ea c9 bb
       -0.007271593 8.893214e-05 0.0023005717 -0.0061619724
000120 56 e3 02 3c fa 7e 3f bc 68 8d 8d 38 5c 42 83 bc
       0.007988771 -0.011687988 6.749743e-05 -0.016022854
000130 32 c7 0b bc 16 12 64 bc 4e d9 0b 3b 41 38 eb bb
       -0.008531379 -0.013920328 0.002133924 -0.007178337
000140 68 c2 70 3a 8b 06 1d bc 07 fd ab 3b 6e 9f 55 bc
       0.0009184242 -0.0095840795 0.005248669 -0.013038499
000150 e3 af 9b bb 99 57 2e 3c 46 68 02 b9 a4 65 2c bb
       -0.004751192 0.010641002 -0.00012436611 -0.00263057
000160 ba 80 91 3c ac cf f8 bb 1f 69 3b 3c 7e 8e f3 bb
       0.017761577 -0.007593116 0.011438637 -0.007432758
000170 61 46 27 3c 02 ba 48 bb d1 d3 fb 3b 02 a2 c2 3a
       0.010209651 -0.0030628447 0.0076851626 0.0014849307
000180 1d 5a 96 3c 52 59 86 3b 8e c3 0c bc d6 14 6d 3c
       0.018353516 0.0041000033 -0.008591546 0.0144703
000190 99 54 3a 3c 22 09 c9 3b 49 7d 51 3c 13 fc 38 3c
       0.011372709 0.006135122 0.012786218 0.011290568
0001a0 8d a1 6a bc 34 7f 3c bc 8d 3f 92 bc c8 0a 5c bc
       -0.014320743 -0.011504937 -0.017852569 -0.013430305
0001b0 34 5d 49 bc 71 9e 88 3c 39 3d c3 bb 71 56 88 bc
       -0.012290288 0.016677113 -0.005958226 -0.016642781
0001c0 1b 82 71 3b 25 42 37 bc f8 ae 0d 3c 58 7e 13 3a
       0.003685123 -0.011185204 0.008647673 0.00056264317
0001d0 c9 a1 7f bc 64 78 2b bc 3a b8 e8 3b 37 8f 8f 3c
       -0.015602537 -0.010465715 0.0071020396 0.017524345
0001e0 61 f1 43 bc 2a 1e 25 bc 9d f1 a2 3a d1 c2 2f 3c
       -0.011959405 -0.010077992 0.0012431626 0.0107276
0001f0 ea 68 93 bc 7c e0 80 3c 6e 31 4a ba 7e 59 72 bc
       -0.017994363 0.015732042 -0.0007713054 -0.014791844
000200 35 fa 07 3c 0c ec 47 3c a4 f9 6d bc b0 28 57 bc
       0.0082994 0.012202274 -0.014524851 -0.013132259
000210 ca b5 e6 3b 21 f6 0f 3c 61 93 8e bc 7b 8d 89 bc
       0.007040714 0.008786709 -0.01740426 -0.016791096
000220 14 e6 8e 3c cb 4f 92 3c b2 6b ea 3b 3f da 95 3c
       0.017443694 0.017860314 0.0071539516 0.018292544
000230 08 df 9c 3c da e8 92 bc 12 f0 6a bc bd cb 7b 3c
       0.019149318 -0.017933298 -0.014339464 0.015368399
000240 96 a4 97 bc 25 3b 94 3c cc 62 1d bc 07 93 71 3c
       -0.018511098 0.018094609 -0.009606075 0.014744527
000250 2e be 10 bc 2e e4 7a 3b 72 8d 87 bc 24 37 8b bc
       -0.008834405 0.0038282978 -0.016546939 -0.016994067
000260 fc 53 3b bc 2e 6a 7c 3c c7 03 19 3c 03 28 9b bc
       -0.011433598 0.015406175 0.0093392795 -0.018939978
000270 fe d4 8b 3c ca b1 8f bc 72 5b 84 bb 1c 93 90 3c
       0.017069336 -0.017540831 -0.0040392214 0.017648272
000280 5e 97 bb bb 0c 7b 67 3c 28 89 b7 bb bf 8b 9b 3b
       -0.0057248315 0.014128458 -0.005601067 0.0047468836
000290 c0 c9 02 bc ee e5 cf bb d1 f5 79 bb e1 5f 88 ba
       -0.007982671 -0.0063445484 -0.0038140903 -0.0010404551
0002a0 b6 72 54 3c 9c 20 67 3a a8 e9 93 bb 61 a2 84 bc
       0.012966802 0.000881681 -0.004513938 -0.01619071
0002b0 be 1e 66 bc 9f 39 37 bc a9 fb 2e 3b a8 7f 64 bc
       -0.014045415 -0.0111831715 0.0026700294 -0.013946451
0002c0 43 07 31 bc f4 ee 3a bc 56 74 1f bb 72 2a 82 bb
       -0.010804954 -0.01140951 -0.0024330816 -0.003972345
0002d0 5c 1b 70 b8 b1 36 85 3b 76 94 c1 ba 45 15 18 3c
       -5.724594e-05 0.0040653576 -0.0014768976 0.009282415
0002e0 c9 7e 6c 3c df f4 fa bb 39 72 b0 3b 7c 14 b7 bb
       0.014434525 -0.0076585854 0.00538471 -0.0055871587
0002f0 eb e2 75 3c 0a 1e 37 3c 06 aa 0c bc 62 3c 23 bb
       0.015007715 0.011176595 -0.008585459 -0.0024907817
000300 2c 78 3b 3c fa 28 88 3c 10 c4 aa bb fc ad 34 3c
       0.011442225 0.016621102 -0.0052113608 0.011027809
000310 58 fa 4f 3c 89 e1 21 bb 5f 3e 63 3c ba fe 5c 3c
       0.012693964 -0.002470108 0.013869851 0.013488466
000320 82 85 7b bc 00 83 11 bc 3e c0 88 bc a2 03 a1 bc
       -0.015351655 -0.0088813305 -0.01669323 -0.019655053
000330 6d ff 82 bc a1 45 99 3c aa c1 ac bb 01 d5 8b bc
       -0.015990937 0.01870996 -0.00527211 -0.017069342
000340 81 ee 15 3c f3 e7 20 bc 5c 85 02 3c 51 0a 99 bb
       0.009151102 -0.009820926 0.007966366 -0.0046704193
000350 47 9d 8e bc ce 5f fc b9 34 38 83 bb 13 ca 8c 3c
       -0.01740898 -0.00048136566 -0.0040045027 0.0171862
000360 dc e7 17 bc 2e ef 6e bc ad 45 2c 3c 21 92 51 3c
       -0.009271588 -0.014583392 0.010514659 0.0127911875
000370 ab d5 93 bc 16 cc 2c 3c ae 6d 3b 3c 6a e4 7c bc
       -0.01804622 0.010546705 0.011439724 -0.0154353175
000380 ae a6 6a 3c e7 47 ff 3b d6 cf 84 bc 93 92 41 bc
       0.014321966 0.007790554 -0.016212385 -0.011814731
000390 96 51 9e ba c3 db 84 3b 23 6e 9b bc 53 e3 91 bc
       -0.0012078758 0.004054518 -0.018973416 -0.017808592
0003a0 9a a0 8d 3c e4 45 9a 3c 76 30 75 3b 69 53 9a 3c
       0.017288495 0.018832155 0.0037412918 0.018838601
0003b0 f6 60 8d 3c 4d a0 96 bc 89 a5 91 bc fb 59 80 3c
       0.017258149 -0.018386984 -0.017779129 0.015667906
0003c0 14 ad 9b bc 05 76 8c 3c 1b f7 6c bc a6 24 52 3c
       -0.019003429 0.01714612 -0.014463211 0.0128261205
0003d0 16 00 af 3b 01 ba 87 3c c1 02 6a bc 5e ce 95 bc
       0.0053405864 0.016568186 -0.014282883 -0.01828688
0003e0 b6 3a f1 bb 39 9d 63 3c a5 b1 5e 3c a3 f1 9b bc
       -0.007361735 0.013892465 0.013592158 -0.01903612
0003f0 33 55 87 3c 1b d5 99 bc 1b cc 0d bc eb e3 9b 3c
       0.016520118 -0.018778374 -0.00865462 0.019029578

embedding.weight f4 [1054, 32]
000000 1e e5 7c bf 00 ab ef 3e 70 80 fe be 26 20 92 3f
       -0.98787105 0.4681015 -0.49707365 1.1416061
000010 08 83 38 bf f5 22 64 be 05 91 79 bf 16 f5 26 40
       -0.7207494 -0.2227896 -0.9748691 2.6087089
000020 bd 78 46 be e1 ab 8e 3f 14 22 12 c0 df f1 33 3f
       -0.19381995 1.1146203 -2.28333 0.7029094
000030 57 9b af 3f 35 5d ac 3f 3d 74 bf be 2c 75 27 3f
       1.3719281 1.3465945 -0.3739337 0.65413165
000040 11 ff 3e 3d 83 9b 10 3f 24 88 c5 bb 93 31 27 bf
       0.04662997 0.5648729 -0.006028192 -0.6531002
000050 f4 7e 83 3f 34 84 86 bf ee 03 c9 be 91 06 d7 be
       1.0273118 -1.0509095 -0.3926081 -0.41997197
000060 e3 ca 7c bf 70 0b 97 bd ab 70 20 bf 46 39 a0 3f
       -0.9874708 -0.073752284 -0.6267192 1.2517478
000070 b2 da cf be 80 db 94 bf f8 05 95 3f 61 ba a4 be
       -0.4059654 -1.1629486 1.1642447 -0.32173446
000080 e2 92 e8 bf 85 ee b5 bf a7 4b 18 bf b8 10 e2 3e
       -1.8169825 -1.4213415 -0.59490436 0.4415338
000090 13 76 c2 3e 6f 9e fb 3f 53 8d c1 3f 8d e2 40 3f
       0.37980708 1.9657725 1.5121254 0.7534569
0000a0 6b 68 9c bf 21 e0 e7 3f 9f 37 ee bd a6 6a 92 3e
       -1.2219366 1.8115274 -0.11631703 0.2859699
0000b0 0b dc 96 be 1a 17 c9 bf da 04 b1 3e f7 0a 96 3f
       -0.29464754 -1.5710175 0.34574014 1.1722096
0000c0 e2 0f 98 bf 29 d3 3e 3f 47 5e a6 3f 0e 50 00 bf
       -1.1879847 0.74540955 1.2997521 -0.50122154
0000d0 36 a8 83 bf 3c 8b b2 bf 6e 51 25 bf 59 0a d8 3f
       -1.0285709 -1.3948741 -0.64577377 1.6878158
0000e0 0e 3e 29 c0 c3 2c aa 3e ce 25 93 3f 92 09 11 bf
       -2.6444125 0.33237275 1.1495912 -0.5665523
0000f0 6d 8d 38 be 47 fd e3 bf b6 55 d8 bf d8 5c 10 bf
       -0.180227 -1.7811669 -1.6901157 -0.5639167
000100 72 31 2a 3f b0 a1 91 3f 8c 00 91 bf ae a8 82 be
       0.664817 1.1377468 -1.1328292 -0.25519317
000110 8d 6c 31 3f 96 f7 20 bf 1a ba 2a bc d8 bb f9 be
       0.6930626 -0.62877786 -0.010420347 -0.48776126
000120 89 5a b5 3f 1f fb 11 40 5b c5 ce bf 46 9e 28 3e
       1.4168254 2.2809522 -1.6153978 0.16466627
000130 85 60 96 3f f2 b6 9e be 05 c3 9f bf ae be d6 3e
       1.1748205 -0.3099895 -1.248139 0.41942352
000140 be 18 a1 bf cb 47 a7 3e f1 0d 60 bf cd fd 91 be
       -1.2585676 0.3267196 -0.8752127 -0.28513947
000150 12 99 af 3c 92 f1 6c 3f b0 85 9b bf 87 a4 67 bf
       0.021435294 0.9255611 -1.2150173 -0.90485424
000160 1c 78 77 bf e7 9e 19 be 32 ce 21 3f 21 91 06 bf
       -0.9666765 -0.15002023 0.63205254 -0.525652
000170 88 9f 85 be 67 c1 94 bf 63 28 74 3e 07 b2 85 3e
       -0.26098275 -1.1621522 0.23843531 0.26112387
000180 48 a2 e7 3e 8c 84 23 3f bc d9 d5 be 31 c5 56 3f
       0.45240998 0.63874125 -0.4176768 0.8389464
000190 71 ed 5e 3f a7 dc d9 be d9 be f5 3f d6 f0 8e 3f
       0.87081057 -0.42551157 1.9198867 1.1167247
0001a0 7e 54 5b bf 5b d7 ef bd 41 bd 91 bf fc 64 c9 bf
       -0.856758 -0.11710998 -1.1385881 -1.5733943
0001b0 b4 3b 78 bf c6 d5 0c 40 2f ac 0f be 36 7e 7d bf
       -0.969661 2.2005477 -0.14030527 -0.9902071
0001c0 3c 72 52 3f d2 79 e5 be 3a 20 e7 3d c7 b0 43 bd
       0.8220556 -0.44819504 0.112854436 -0.04777601
0001d0 7d 3d 13 bf 8b 16 f8 bc fb 11 73 bd b5 1b 52 3f
       -0.575157 -0.030284187 -0.05934332 0.8207353
0001e0 dc 2b b7 bf 92 90 60 bf 45 6e 05 3f 7b a9 99 3f
       -1.431026 -0.87720597 0.5212138 1.2004846
0001f0 1e 11 f1 bf a6 58 8d 3f 7e 8b 9c 3e a5 a0 82 bf
       -1.8833349 1.1042678 0.30575174 -1.0205275
000200 8b 5f 32 bf 48 a8 3b be 16 8f 10 3f 7a 9d be 3d
       -0.69677037 -0.18325913 0.5646833 0.0930738
000210 91 94 9a 3e 95 87 a4 bf 7f f7 4d bf 2b 25 3d 3e
       0.30191472 -1.2853876 -0.80455774 0.1847121
000220 8d ce df be 6d a0 58 3f 9c b3 a9 bd ca fa 08 c0
       -0.43712273 0.8461979 -0.08286211 -2.140307
000230 ce 50 3e 3f d1 39 41 bd b3 74 39 bf 2f 45 79 bf
       0.7434205 -0.04717428 -0.72443694 -0.9737119
000240 59 07 b6 bf 44 42 b2 3f b3 60 26 3e d7 28 87 3f
       -1.4220992 1.3926473 0.16247825 1.0559338
000250 24 d7 2a bf c8 e3 e8 3d 31 43 ac 3e b3 75 94 3e
       -0.6673453 0.11371571 0.33645013 0.28996047
000260 ef ea 76 3e 96 d1 c6 3d b7 8b 78 3f 75 d4 6d 3f
       0.24113058 0.09707944 0.9708819 0.9290231
000270 64 35 8e bf ac 3a af bf 79 90 32 3f eb 4b 1e 3e
       -1.1110044 -1.368978 0.697517 0.15458648
000280 8b 45 1a 40 39 f2 72 be 06 56 a6 3f fd ee 4d 3f
       2.4104946 -0.23725213 1.2995002 0.8044279
000290 e5 6d bc 3e 61 ed 77 3f 86 5b a5 bf cf 42 31 bf
       0.36802593 0.96846586 -1.2918556 -0.69242567
0002a0 ba d5 74 bf 71 a9 0d 40 9f 68 42 be 0a 25 81 bf
       -0.9563862 2.213467 -0.18985222 -1.0089428
0002b0 76 95 24 3e e0 4e 3d bf b5 87 7d bf ff 0e c5 3e
       0.1607264 -0.7394848 -0.990352 0.38488004
0002c0 2a 7d 42 3f d4 00 00 bf a7 68 af 3d df 5d fe bf
       0.75972235 -0.50001264 0.08564883 -1.9872397
0002d0 00 9e 9c 3f 60 e2 48 3e 89 d9 3d be ca 95 2d bf
       1.2235718 0.19617605 -0.18540014 -0.67806685
0002e0 6c e2 f2 be 2d 1f e6 bf 45 fd 14 be 44 f0 91 bf
       -0.4743837 -1.7978264 -0.1454974 -1.1401448
0002f0 3e f9 79 3e 0f 3a 9a 3f d4 96 14 40 05 10 28 3f
       0.24411485 1.2048968 2.3217058 0.65649444
000300 69 09 a0 bb 97 b1 a9 3e 68 de 14 bf 16 c8 e8 3f
       -0.0048839343 0.33143303 -0.58151865 1.8186061
000310 3d 47 af bf bb 31 e7 3f b0 c7 05 c0 69 08 70 3f
       -1.3693615 1.8062052 -2.090313 0.9376283
000320 c5 b3 19 3d 05 85 75 bf f5 ac bb be 22 7f e4 bf
       0.037524957 -0.95906097 -0.36655393 -1.7851298
000330 d1 47 82 be 78 d0 1f 3f cd 08 59 3f 97 0c e8 3f
       -0.25445417 0.62427473 0.84779054 1.8128842
000340 6b 8f 2a bf d6 b9 34 3f 01 01 3c 3e fb a5 c4 3d
       -0.6662509 0.70596063 0.18359758 0.09601971
000350 9f 87 9a 3e 54 1d af 3f 40 66 e9 bd 99 3d 79 3f
       0.30181596 1.3680825 -0.11396456 0.97359616
000360 fa a8 a1 be b3 c1 1c 3d 89 48 b1 3f 33 fd 61 3f
       -0.3157423 0.038270663 1.3850261 0.88276976
000370 a5 21 81 3f 7b 4e 9f bd e4 f1 98 bf 8f ea ef bf
       1.0088392 -0.07778641 -1.1948819 -1.8743457
000380 07 dc 91 3f 0f 9a db be 47 d5 3e 3f 49 3c 6e bf
       1.1395272 -0.42890975 0.74544185 -0.9306074
000390 14 b3 54 3f a6 fb 20 bf cc a0 00 be 02 22 8c be
       0.8308575 -0.62883985 -0.12561339 -0.27369696
0003a0 0f 23 ef bd cc 4a cd bf 9b 7e 0e 3f d8 a7 5a bf
       -0.11676609 -1.6038451 0.55661935 -0.8541236
0003b0 ca 04 97 bf 36 34 4f 3f bf 61 b1 be db 8f bf be
       -1.1798337 0.8093904 -0.34644887 -0.3741444
0003c0 d3 6f 7a 3f ea 83 22 3f 2d d5 81 be 1e 17 5d bf
       0.9782688 0.63482535 -0.25357953 -0.863634
0003d0 75 c6 65 be 14 ea 94 bf 22 0b bd bf 02 b4 dd 3e
       -0.22438987 -1.1633935 -1.4769022 0.43301398
0003e0 3a 99 bd be 7d c8 c9 3e a9 b9 44 3d 7b 1c 73 3f
       -0.37030965 0.39410773 0.04802862 0.9496533
0003f0 52 28 f9 bf a1 54 61 bf 2f f6 8d bf 01 b5 a0 3f
       -1.946543 -0.8801976 -1.1090754 1.2555238

layer.self_attn.in_proj_weight f4 [96, 32]
000000 9e 8c 4b be 64 59 d9 3c 99 c9 6c bd 4a 9a 6e bd
       -0.1987786 0.026531883 -0.057809446 -0.05825261
000010 0b 46 01 be 8d 60 e4 3d eb 27 5d 3e 06 30 dc bb
       -0.12624376 0.11151228 0.21597259 -0.006719592
000020 d5 7f 46 be a6 a6 cb 3d 66 e1 de bd ae c9 60 3d
       -0.19384702 0.09943895 -0.10882835 0.054879837
000030 97 cc 03 bd f2 b9 94 bd 77 1f e1 bd dd ed 5e bd
       -0.032177534 -0.07262029 -0.109923296 -0.054426063
000040 39 b9 2f bd af 8a f8 3d 70 b1 61 3c 88 2d 9b bd
       -0.04290125 0.12135827 0.013775215 -0.07577044
000050 d8 33 29 be f6 3d ac bd 24 23 4d be c6 17 15 3e
       -0.16523683 -0.084102556 -0.20032936 0.1455985
000060 c3 72 21 be a7 5e ad bd 82 2d 3a 3e 0b e6 b6 3c
       -0.15766434 -0.08465319 0.18181422 0.02232649
000070 9e 50 fc 3c 3c fc f2 3c 06 ca 4d 3e c0 95 f1 3d
       0.03080016 0.02966129 0.20096597 0.11796141
000080 0f 79 02 be 3c f0 c3 bc 53 19 5c 3e 49 27 cf bd
       -0.12741493 -0.023918264 0.21494035 -0.10114915
000090 55 21 af bc f9 3c 43 3e ab e1 46 be 21 29 9b 3c
       -0.021378199 0.19066228 -0.19422023 0.01894051
0000a0 76 1d f6 bb 7b 74 31 3e 4a 9b dd 3d fe 5f 30 3c
       -0.0075108362 0.1732959 0.10820635 0.010765074
0000b0 47 4a 52 bd 4e 26 e7 bd bf c3 e9 3d 00 93 4e 3d
       -0.051340368 -0.11286603 0.11414289 0.05043316
0000c0 f8 84 52 3e 77 2f 9b 3a 60 fe 32 3d cd f8 49 be
       0.20558536 0.0011839707 0.043699622 -0.19723816
0000d0 d3 3a 07 be 95 ab 49 3e f6 0a 20 bd 26 2a 01 be
       -0.13206033 0.1969436 -0.039072953 -0.12613735
0000e0 ce 30 c7 3d cc 3d 23 3e e0 67 1d 3e b1 3e 44 be
       0.09726106 0.15941542 0.15371656 -0.1916454
0000f0 52 e3 18 be 2c dc 56 bd 41 48 d6 3d fd e2 1c be
       -0.14930466 -0.052456066 0.10463 -0.15320964
000100 6a 7a f3 3d e4 1e 47 3e 85 24 6c bb 9c 27 df 3d
       0.11888583 0.19445378 -0.003603251 0.10896227
000110 99 36 30 be 3f 36 21 be 9c 51 08 3e 7f f9 56 bc
       -0.17208327 -0.1574335 0.13312382 -0.013121008
000120 48 c3 33 be ce 9c 55 3e 19 63 36 be 83 b1 03 3e
       -0.17554963 0.20860597 -0.1781124 0.12860684
000130 76 32 a5 bc c2 57 37 3e 78 ef bb 3d e5 18 d5 3d
       -0.020165663 0.1790457 0.091765344 0.10405139
000140 84 c4 74 bc f6 80 d3 bd 59 be 51 be 57 69 17 be
       -0.014939431 -0.10327332 -0.20482768 -0.14786278
000150 de 3a 03 be 82 38 b4 3d e7 1a db 3d b6 30 9e bd
       -0.12815425 0.087998405 0.106984906 -0.077241346
000160 14 ae ab bb 12 80 16 be ae df a3 bd 8f 05 ff 3d
       -0.0052392576 -0.14697292 -0.08001648 0.12452232
000170 a4 9a 29 be f9 bc ed bc 91 43 bc 3c 95 79 56 3d
       -0.16562897 -0.029020773 0.022981437 0.052362043
000180 82 d4 1e 3d 7b 1f 5e 3e 10 3d e2 bd 49 af 87 3d
       0.038776882 0.21691696 -0.11046803 0.0662523
000190 74 d1 02 bc e5 f9 ec bc cc 21 12 be 1b 4a 0b be
       -0.007984508 -0.028927753 -0.14270705 -0.13602488
0001a0 d4 c3 2f 3e 0d a9 92 bd 69 19 f9 bd 5d 6d d0 3d
       0.17164546 -0.0716115 -0.1216305 0.101771094
0001b0 fe 1f 31 be 1f 16 cb bd a8 c4 ba bd 71 4d 55 3e
       -0.1729736 -0.09916329 -0.091195405 0.20830323
0001c0 3d f8 e2 3c dc 33 c6 3d 5d 5c d2 3d 7e 96 2f be
       0.02770626 0.0967786 0.10271523 -0.17147252
0001d0 b3 d1 fa bd 0c 05 20 be 52 f2 20 3e c6 d2 49 3d
       -0.12247028 -0.15626925 0.15717438 0.049273275
0001e0 f4 33 22 3e b3 f2 bd 3d 89 29 ba 3c 44 18 ca bd
       0.15840131 0.09274807 0.022724884 -0.098679096
0001f0 a0 13 f3 3d 68 30 53 be 13 f9 ab 3d 69 a8 46 be
       0.118689775 -0.20623934 0.083971165 -0.19400181
000200 3e 50 40 be 09 f2 63 3e 47 bd 2c be 81 4e 46 be
       -0.1878061 0.22260298 -0.16869079 -0.19365884
000210 c5 cc c7 3d 4b 51 98 3d 0f d0 26 3e e5 83 ec 3d
       0.097558536 0.074373804 0.16290306 0.115485944
000220 2d 0c 80 3d b8 58 1b bd 52 2e 08 bd 1f 90 9a bd
       0.06252322 -0.037926406 -0.0332473 -0.0754702
000230 e9 14 c7 bd 0c 05 1e be 52 f6 3a 3e 7b c3 57 bd
       -0.09720785 -0.15431613 0.18258026 -0.05267666
000240 44 06 ba bd 16 ad 2b be 5e df 1d 3c d9 ec 04 be
       -0.09083226 -0.16765246 0.009635774 -0.12980975
000250 86 b9 31 3e c0 9e 70 3d 32 18 a5 bd 02 a7 95 bd
       0.17355928 0.058745146 -0.080612555 -0.07307245
000260 19 33 06 bd 2f bb 44 3e fb e3 15 3e 59 2f 55 be
       -0.032763574 0.1921203 0.14637749 -0.20818843
000270 ff e6 05 3e fc 8c ed bd 6f bd 02 3e 42 80 9d 3d
       0.130764 -0.11599156 0.12767576 0.07690479
000280 0a e4 e7 3d 52 73 4d 3e fc 7e 06 be 50 b0 a1 3c
       0.11322792 0.20063522 -0.13134378 0.019737393
000290 b2 bd 03 3e a7 3c 33 3e 1c 9f f6 bd d4 1f 5c 3e
       0.12865332 0.17503606 -0.120420665 0.21496516
0002a0 5a 70 53 bd b3 6b 09 bd 20 c2 4a 3d fa e0 76 bd
       -0.05162082 -0.033549976 0.04950154 -0.060273148
0002b0 f6 a7 f0 3d ac c7 9a 3d be 0b 1b 3d 81 9c 04 bd
       0.11750786 0.07557616 0.037852995 -0.032375816
0002c0 62 26 2b be c4 5d e0 3d 1e 8d 2b 3d 5a b0 be 3d
       -0.1671386 0.109553844 0.041882627 0.0931098
0002d0 31 d1 17 be a1 12 5b 3e fa 66 e1 bd fd 08 9c 3d
       -0.14825894 0.21393825 -0.11005969 0.07618902
0002e0 9d 6c 14 be ab fa c5 bc 66 e2 4a be e6 92 58 bd
       -0.14494558 -0.02416738 -0.19812927 -0.05287447
0002f0 68 63 fc bd 66 4e 30 3e 5f 3d 06 bd e3 26 c4 3b
       -0.12323648 0.17217407 -0.03277337 0.005986081
000300 f3 84 0c be 17 ee 7a bc 33 27 f0 3c 86 de aa 3d
       -0.13722591 -0.015315554 0.029315567 0.08343224
000310 bc 91 30 3e 5c 93 a1 3d bb 7a b8 3d 69 e7 11 be
       0.17243093 0.07889435 0.09007784 -0.14248432
000320 f0 71 ff 3d 23 39 5c bd 4c 06 e7 bd 19 da 0a be
       0.12472904 -0.053765427 -0.11280498 -0.1355976
000330 ea 93 01 be 9b 1d f0 3d 58 82 5c be 0c e5 08 3e
       -0.12654081 0.11724397 -0.21534097 0.13368624
000340 b8 6d 6b 3d 26 d0 0e 3d 5c 2b 59 bd 2b d6 83 3c
       0.057477683 0.034866475 -0.053019866 0.016093334
000350 65 03 21 3d fe 21 04 3e 4b eb 23 be 94 aa 1f 3e
       0.039309878 0.12903592 -0.16007726 0.15592414
000360 d0 2f 5a be d3 5f 25 be d7 cd 61 3d 75 ee 18 bd
       -0.21307302 -0.16149835 0.055127945 -0.037336785
000370 da 70 3a be 03 45 80 3d 0a 4a c1 bd ed 58 b4 3d
       -0.18207112 0.06263163 -0.0943795 0.08806024
000380 09 ce c4 3d 72 91 fd bd 37 e5 9d 3d 67 03 49 be
       0.096096106 -0.12381257 0.07709735 -0.19630204
000390 5e 75 34 3e 45 c8 9c bb 2d 73 00 3e 12 7b 0c bd
       0.17622897 -0.004784616 0.12543936 -0.034297056
0003a0 03 e4 83 bb c8 e0 d4 bd 12 95 01 3d 96 f7 a3 bd
       -0.004024984 -0.10394436 0.031636305 -0.08006208
0003b0 2f ec c0 bd 9f ea 6e bd cd cf 42 be 8f ce 68 bd
       -0.094200484 -0.05832922 -0.19024582 -0.056837615
0003c0 cb 8d 49 3d 49 0c 81 3d dd 68 aa 3d ae 25 2f be
       0.04920749 0.06301171 0.08320782 -0.17104217
0003d0 c4 e9 30 3d c6 47 62 3e 9d 8c a5 bd 6a 5f 4a 3e
       0.043191686 0.22097692 -0.080834605 0.1976296
0003e0 44 79 e8 bd be 2c 14 3e 26 da 8f 3d 05 1b 42 3d
       -0.113512546 0.14470193 0.070240304 0.04738905
0003f0 97 e5 7d bc 6e 42 19 3e 42 97 a5 3d 5e 16 25 3e
       -0.015496633 0.14966747 0.08085491 0.16121814

layer.self_attn.in_proj_bias f4 [96]
000000 f0 2e 24 3b 5f f5 4a 3b 7f 6d 9e bc 5c 9c 5e 3c
       0.002505239 0.0030969006 -0.019339321 0.013587084
000010 10 11 2a bc 85 81 9a b9 d4 e8 05 bc a6 d9 9d bc
       -0.010380045 -0.00029469669 -0.008173186 -0.019268822
000020 a4 fe 59 3c 04 73 71 bc b9 df 8a 3c 80 fe 88 bb
       0.01330534 -0.0147368945 0.016952382 -0.0041807294
000030 2d 81 89 3c fe d3 8a bc 1b 01 63 ba 24 f4 87 bc
       0.016785229 -0.016946789 -0.00086595275 -0.016595908
000040 cf f5 a1 bc 63 83 39 3c 59 98 5c 3c eb 41 1e 3b
       -0.019770531 0.011322829 0.013464057 0.0024148177
000050 29 4b 99 bc 52 ba 98 bc b2 9a 43 3c d0 28 9d bc
       -0.018712597 -0.018643532 0.011938738 -0.0191845
000060 07 c0 86 3b 13 40 94 bc b6 d8 b1 39 2a a7 44 3c
       0.004112247 -0.01809696 0.00033921533 0.012002746
000070 0b 26 97 3c 32 f0 3f bc a2 d5 92 bc 80 c6 47 3c
       0.018450757 -0.011714982 -0.017924134 0.012193322
000080 19 0a ff 37 93 9e 11 b8 24 28 21 b9 85 01 55 b9
       3.0403071e-05 -3.4718378e-05 -0.0001536911 -0.00020313829
000090 5e ef d3 38 e8 b0 8b 38 a4 44 97 38 21 8a 46 b8
       0.0001010585 6.660988e-05 7.2130264e-05 -4.733552e-05
0000a0 e1 5e bb 37 89 0c 22 39 ab 3a 8f 37 9c d7 77 39
       2.2336319e-05 0.00015454194 1.7074248e-05 0.00023636076
0000b0 e4 8a b7 36 64 57 3f 38 3a 1f 0c 39 2b 50 4f b8
       5.469994e-06 4.5619337e-05 0.00013363073 -4.9427308e-05
0000c0 31 93 a6 37 87 4f 87 38 16 55 72 37 70 3b 2e 38
       1.9857283e-05 6.452115e-05 1.4444135e-05 4.154019e-05
0000d0 48 3e f7 b8 fc 7e 14 b9 53 7e ba 38 66 b9 e9 b6
       -0.000117894786 -0.00014161685 8.892701e-05 -6.9655243e-06
0000e0 12 7d f2 38 ee e5 46 b7 45 f1 ab 38 d6 02 20 b9
       0.000115627554 -1.1855254e-05 8.198855e-05 -0.00015259846
0000f0 17 d7 df 38 e3 23 41 37 ee c4 cd b6 5c c3 dc 38
       0.00010673532 1.1512052e-05 -6.1324017e-06 0.00010526806
000100 56 c7 6d 3c c2 b5 90 3c 2f b1 db 3b 53 06 90 bc
       0.014512857 0.017664794 0.0067044715 -0.01758114
000110 13 40 a1 3c 07 87 38 3c e6 e8 88 3c 63 e2 a3 3c
       0.019683873 0.011262662 0.016712617 0.02000541
000120 b6 e8 9d 3c 9c 92 9c 3c 6b 20 bf bb 6d a9 99 bc
       0.019276004 0.019112878 -0.005832722 -0.018757546
000130 17 ef 96 3c ca 94 a1 bc 94 da a0 bc 84 69 18 3c
       0.018424554 -0.019724268 -0.019635476 0.009302501
000140 d3 77 76 3c 01 47 37 bc c2 5d 57 bc dd a8 9d 3c
       0.015043217 -0.011186362 -0.013144912 0.01924556
000150 f7 e6 84 bc fb 45 8c 3c dd 10 3b bc 1d e7 92 bc
       -0.016223414 0.017123213 -0.011417595 -0.017932469
000160 5b 8f a4 bc 99 e7 dc bb 76 9a 9b 3c 35 c8 87 3c
       -0.020087888 -0.006741476 0.018994551 0.016574958
000170 8c b6 93 bc 74 41 e1 bb 37 17 90 3c ac f4 88 ba
       -0.018031381 -0.0068742577 0.017589195 -0.0010448894

layer.self_attn.out_proj.weight f4 [32, 32]
000000 37 2c bb 3d 46 64 c1 bd b3 99 8c bd 35 1c 0e 3e
       0.09139293 -0.09442954 -0.06865253 0.13877948
000010 88 c9 dd 3d 82 12 41 bd ef 96 9e bd cb 69 cf 3d
       0.10829455 -0.04713679 -0.07743632 0.101276
000020 c2 d0 63 3d 54 f5 6b 3d e2 f7 c9 bd b0 bb 17 3d
       0.05561901 0.05760701 -0.09861733 0.037044227
000030 f6 be 3f 3e 1e d1 66 bc 22 cc 4a 3d 76 8b 77 3d
       0.1872519 -0.014087943 0.049511082 0.060435735
000040 60 98 1e 3e 2e 52 16 3e b0 57 a3 bd ac 50 c9 3d
       0.15487814 0.14679787 -0.079757094 0.0982984
000050 20 cb 94 bc 02 61 a1 3d d2 d9 1f be f1 86 02 bd
       -0.018163264 0.07879831 -0.15610436 -0.03186697
000060 98 bf 0e be c3 7d a9 3d 0d c2 79 bd 80 e2 3c bd
       -0.13940275 0.0827594 -0.060976077 -0.046114445
000070 dd b8 03 bd 44 e3 a3 bd 27 bb df 3d 1d c1 a8 bc
       -0.03215872 -0.08002332 0.10924368 -0.020599896
000080 75 54 88 bd e1 6b 21 3e 9b eb 15 3d ab e1 fe bd
       -0.06656734 0.15763809 0.036601644 -0.124453865
000090 dd d0 1a 3d c5 85 91 3d b7 36 72 bd ca f6 25 bc
       0.037796844 0.07105593 -0.05913421 -0.01012964
0000a0 78 40 17 3d 80 50 f0 3d cc c3 1d be ec 28 02 bd
       0.036926717 0.11734104 -0.15406722 -0.031777307
0000b0 cc 44 45 3e ce 41 b4 3c 91 4d 89 bd 19 f6 0a be
       0.19264525 0.022004034 -0.06704248 -0.13570441
0000c0 fa 24 be 3d 69 ca 88 3a 7a e7 ea 3d 54 57 52 bd
       0.092843965 0.00104363 0.11469932 -0.051352814
0000d0 62 98 44 3d 8a e4 1d be e1 c8 b1 3d a6 e3 36 3e
       0.047996886 -0.15419212 0.08680893 0.17860278
0000e0 89 51 8c bb 81 b7 3f be b5 34 2e 3e f5 e5 0b 3e
       -0.0042821807 -0.18722345 0.17012294 0.1366194
0000f0 ab 0d 02 be 7b 16 b1 bd fc 17 07 3e e0 b7 08 3d
       -0.12700526 -0.08646866 0.13192743 0.033378482
000100 6e 1d ba 3d 11 37 7f bd 34 8c ed 3d 55 6e 28 3e
       0.090876445 -0.062308375 0.11599007 0.16448338
000110 45 9a e4 3d 16 6e 07 be e1 05 f6 3d 04 6b fc bd
       0.11162237 -0.13225588 0.1201284 -0.12325099
000120 e8 5b 18 bd b8 6a f7 3d d6 64 3b be e1 c3 0c 3e
       -0.037197024 0.12080902 -0.18300185 0.13746597
000130 dd 74 0c be 6c 4d 2d bd ea cc 38 3d 62 be d8 3d
       -0.13716455 -0.042310163 0.045117296 0.10583188
000140 4e 77 bd bd 02 38 cf bd bf 55 e7 3d 90 b2 94 3d
       -0.09251271 -0.101181045 0.11295652 0.072606206
000150 1d 01 13 be 03 a9 38 bd 98 bd ff bd b2 e2 2a 3e
       -0.14355893 -0.045083057 -0.12487334 0.1668804
000160 3d 52 95 bd 24 e8 32 3e d6 69 db 3d 33 d0 c6 bd
       -0.07291076 0.17471367 0.10713546 -0.097076796
000170 7f b0 d4 3c 51 13 6f bd fc d1 e2 bd ef 73 41 be
       0.025963066 -0.05836803 -0.110752076 -0.18891881
000180 23 26 e9 3d 43 e6 1b bd e8 a6 56 3d 3e e2 9a 3d
       0.11384227 -0.03806139 0.052405268 0.075626835
000190 a5 22 24 3e 87 46 43 3c 6c 7d f3 3d 86 63 93 bd
       0.16028841 0.0119186705 0.11889157 -0.07196717
0001a0 79 af 43 bd ef 48 1e 3e 9f 66 2c 3e 3e cf 92 3d
       -0.047774766 0.1545751 0.16836022 0.071684346
0001b0 06 9c 23 3b 32 a8 69 3c 89 52 fc 3d a9 b6 1a be
       0.0024964823 0.014261292 0.1232043 -0.15108742
0001c0 08 da 29 3e 2e ae 23 3d f9 4e d9 3d f1 27 1d be
       0.16587079 0.039961033 0.10610766 -0.15347268
0001d0 95 64 37 be 33 23 af bc 0e 48 01 3e 67 fd c1 3c
       -0.17909463 -0.021379089 0.12625143 0.023680402
0001e0 fb 81 f2 bd cb 59 76 3d b9 c9 26 3d 93 22 f0 bd
       -0.11841198 0.060144227 0.04071972 -0.117253445
0001f0 7e 4b 91 bd 05 37 a2 bd de ac 15 3e 7d c5 75 3c
       -0.07094477 -0.079206504 0.14616725 0.015000698
000200 90 f1 ea 3d 74 e6 4c bd c9 5b 42 be fb 14 8b bc
       0.11471856 -0.050024465 -0.18980326 -0.016977778
000210 0e 5d be bd 68 d0 09 be 41 46 04 be 40 31 40 3d
       -0.092950925 -0.13458407 -0.12917425 0.04692197
000220 12 27 46 3d 87 19 b6 bd 14 92 41 3e bc 87 89 bd
       0.048377104 -0.08891588 0.1890338 -0.067153424
000230 d6 a1 8d 3d 14 47 60 bd d0 f1 f1 3d e9 8f 48 bd
       0.069156334 -0.054755285 0.118137 -0.04896537
000240 53 09 ff 3d e9 9d a5 bd de f7 03 be 5b 5f 1c 3e
       0.1245295 -0.080867596 -0.12887523 0.1527075
000250 5b 5f cf bd c7 6d 0c 3e 0e e8 37 bd 2e 7a 87 3d
       -0.101256095 0.13713752 -0.04489904 0.06615101
000260 ab 7c a7 3c 85 b4 ab bd 5b 2b c3 3d b5 6e cc 3c
       0.020445189 -0.08384041 0.09529754 0.024955133
000270 78 c5 f8 3d 2a 8b 91 bd 48 e8 0a be f8 68 11 3e
       0.12147039 -0.071066216 -0.13565171 0.14200199
000280 7a 62 40 be 7d 28 4d 3d 62 ee ac bd 36 1e f5 bd
       -0.18787566 0.05008744 -0.084439054 -0.11968653
000290 0b 9d b5 3d 2d 04 46 be 24 b1 07 be 3d eb 52 3c
       0.08867844 -0.1933753 -0.13251168 0.012873468
0002a0 2a e8 f4 3d a0 60 d5 bc 09 3e 12 be 99 fc 56 3d
       0.11958344 -0.026047051 -0.14281477 0.05248699
0002b0 19 15 57 bd e6 94 1f 3e 63 1f e1 bc 55 bc 22 be
       -0.052510355 0.15584144 -0.027480787 -0.15892155
0002c0 04 ef 0b 3e d5 cd bc bc 3e 05 00 be 39 51 18 be
       0.13665396 -0.023047367 -0.12502 -0.14874734
0002d0 b0 a0 10 3e e1 69 c6 bd 35 e1 23 be aa 48 41 be
       0.14123797 -0.096881635 -0.16003878 -0.18875375
0002e0 63 72 c8 3c 7f 46 19 3e 6f b8 11 bd 64 7d 61 bd
       0.024468606 0.14968298 -0.03557628 -0.055051222
0002f0 1c b0 44 ba 45 e5 8c 3d b5 de 07 3c 5c 8d 9e 3d
       -0.0007503049 0.06879667 0.008292844 0.07741806
000300 a4 c0 2c be da 0d 2d 3c 07 26 76 3d b3 44 c7 bd
       -0.16870362 0.0105623845 0.06009486 -0.097299
000310 ce bc ef 3c 68 0f ba bd e0 55 cd bd db da 21 be
       0.029264834 -0.0908497 -0.10026145 -0.15806143
000320 c3 a9 17 bd c8 ad ee bd cb 09 06 3d b7 15 06 3d
       -0.03702713 -0.1165424 0.032724183 0.032735553
000330 72 f3 fb 3d e6 74 ec 3d d9 04 95 3c 60 8e 5c 3d
       0.12302293 0.11545734 0.018190788 0.053846717
000340 65 97 17 3c 0a 85 65 3d 20 2d 53 bd 90 6b b2 3d
       0.009252404 0.05603508 -0.051556706 0.08711922
000350 bf a1 8b bd 8c 7f 31 3d d5 a8 d2 bd 15 f6 32 3e
       -0.0681796 0.04333453 -0.102861084 0.17476685
000360 4d 62 24 3e 9e 83 28 3e 96 05 c0 bd 54 38 cc bd
       0.16053124 0.16456458 -0.093760654 -0.09971681
000370 9e 18 ca bd 05 87 36 bd 7a b2 a8 bb 2c 89 d0 3d
       -0.098679766 -0.04456236 -0.005148229 0.101824135
000380 0b a1 0c be 32 22 36 be 27 97 ce bd 37 bd 0b 3e
       -0.13733308 -0.17786482 -0.10087424 0.13646398
000390 33 31 bf bd c9 7c b8 bc d0 c1 eb 3d a0 b0 f7 3d
       -0.09335556 -0.02252044 0.11511576 0.120942354
0003a0 5c 49 22 bc dc 7f 86 3d 13 3f e4 bd 04 2e 32 3e
       -0.009905186 0.06567356 -0.11144843 0.17400366
0003b0 c6 0a 13 be 30 4e 02 be 46 66 f6 3b 51 91 ed bd
       -0.14359578 -0.12725139 0.007519516 -0.115999825
0003c0 22 f6 1e 3e 0b 92 23 3e 92 59 0e 3d 39 16 c5 3d
       0.1552358 0.1597368 0.03475339 0.09623379
0003d0 d3 05 66 3d 53 4b 92 3c 5c cc 91 bd 62 15 ff bd
       0.0561579 0.017858183 -0.071190566 -0.1245525
0003e0 e6 84 46 3d 7d 5f cb bc eb 07 08 be 68 3e 00 3e
       0.048466586 -0.024825806 -0.1328427 0.12523806
0003f0 e4 4f 0c 3e 52 a1 1a be 15 00 a7 bd ee c6 b3 bd
       0.13702351 -0.15100601 -0.081543125 -0.08778177

layer.self_attn.out_proj.bias f4 [32]
000000 4c 34 a4 3c 66 98 a1 3c 27 10 2f bc 3f b7 3b bc
       0.020044468 0.01972599 -0.010685003 -0.0114572635
000010 07 d3 d5 bb a1 23 8f bc 35 f7 a1 bc 1c a2 81 bc
       -0.0065254006 -0.017473044 -0.019771198 -0.01582437
000020 19 98 97 3c b2 08 10 3c 24 b4 86 bc f7 7d 1c 3b
       0.018505143 0.008791136 -0.01644332 0.0023878792
000030 eb 5d 98 3c 4b d9 87 3c e7 63 95 bc 4c 7d a6 bc
       0.018599471 0.016583106 -0.018236114 -0.020323418
000040 c2 17 a4 bc f6 d7 90 bc 7c 10 96 bc 87 22 89 3c
       -0.02003086 -0.017681103 -0.018318407 0.016740097
000050 5b 4b 90 3b 2a 9b 9d 3c 79 04 a1 bc 4e 5e 9e bc
       0.0044035143 0.019239027 -0.019655453 -0.019332077
000060 c3 5f 8e 3c 83 b0 97 bc 8a 31 25 3c 6a 00 20 3c
       0.017379647 -0.018516785 0.010082612 0.009765724
000070 2a b1 40 3c 8f ee 85 3c 04 99 7d 3c fd 55 96 3c
       0.011760989 0.016349105 0.015478376 0.01835155

layer.linear1.weight f4 [128, 32]
000000 1d 52 2b bc f8 12 e5 bc a6 0d 35 3d 15 73 c0 3d
       -0.010456589 -0.027963147 0.04420247 0.0939695
000010 29 77 59 3c 13 d6 16 3c 7e 15 4e bd 0b a8 08 bd
       0.013273039 0.009206313 -0.050313465 -0.033363383
000020 76 d1 87 bd 55 05 1c bb 4a a2 14 be a8 7f eb bd
       -0.066317484 -0.002380689 -0.14515033 -0.11498958
000030 e2 c3 c4 bd aa 41 a7 3c c3 b6 b6 3d a7 fb 34 be
       -0.09607674 0.020417053 0.08921578 -0.17674123
000040 a9 ec 0a be 22 30 8d 3d 7c 47 ba 3d 61 7a 72 3d
       -0.13566841 0.06893946 0.09095666 0.05919874
000050 d8 02 90 bd 3a 86 68 3d b6 03 19 3e b2 9f 29 3e
       -0.070317924 0.056768633 0.14942822 0.16564825
000060 5a 15 15 3d 3c b0 0d be 3a f7 37 be 36 6f c7 bd
       0.036397316 -0.1383676 -0.17965403 -0.09738009
000070 71 4f 0d 3e a5 bf 29 bd e4 ae 09 be c5 8a 43 3d
       0.13799836 -0.041442532 -0.13445622 0.047739763
000080 d5 a9 f1 bc 6e a1 08 3b 94 5a 7b 3c d8 55 7c 3b
       -0.029499928 0.0020848173 0.01534142 0.0038503315
000090 d0 71 da bd 94 b2 77 3c 06 91 0a be c3 94 93 3c
       -0.10666239 0.01511826 -0.13531885 0.018015271
0000a0 b4 c1 fb bc cf 61 56 3c 24 20 f4 3d d1 2a ce bc
       -0.030732013 0.013084843 0.11920193 -0.0251669
0000b0 7b 05 71 bd 31 51 5d bb b7 14 26 3e 4f 78 f7 3d
       -0.058843117 -0.0033770318 0.1621884 0.12083494
0000c0 7f 3c 1c 3e 13 89 76 bd d7 e4 20 be dc f9 89 bd
       0.15257452 -0.060189318 -0.15712295 -0.0673711
0000d0 d0 09 47 3e ea 5f 05 be 33 19 0f 3e 1d 34 54 bd
       0.19437337 -0.1302487 0.13974456 -0.05180751
0000e0 25 98 db 3d fd 44 ea bc 33 61 bd 3d fc ce ff bd
       0.10722379 -0.02859735 0.09247055 -0.12490651
0000f0 56 f5 dd bd 85 96 fa bc 64 03 98 3b 1c 43 15 3e
       -0.1083781 -0.030589351 0.004639076 0.14576381
000100 7f 30 0d bd 81 1f a2 bd f4 0a 89 b9 f4 4f f5 3d
       -0.034470078 -0.07916165 -0.00026138837 0.119781405
000110 23 19 f5 bc 74 13 19 be 70 d6 30 3d 8d b5 9a bc
       -0.029919213 -0.14948827 0.043173254 -0.018885398
000120 76 92 08 be 9f 5e d6 3d 30 cf 24 bb c8 d8 27 be
       -0.1333712 0.10467266 -0.0025147907 -0.16391289
000130 e2 19 08 3c 10 69 94 b8 51 05 39 3e 0e b0 1c 3c
       0.008306952 -7.076759e-05 0.18068434 0.009563459
000140 c3 99 5e 3c db b7 20 3d 92 6a 59 3d 1a 94 e8 3d
       0.013586464 0.03923784 0.05308015 0.11356373
000150 ea 78 1a bd ec 0f cf 3d c1 24 c9 3d e0 60 48 3d
       -0.03771297 0.10110459 0.098214634 0.048920512
000160 66 92 1a be f1 63 14 3e 4d 6d 93 bd 67 2c 15 3e
       -0.15094909 0.1449125 -0.07198582 0.1456772
000170 21 4c bd 3d f4 8b ad bc f4 9a 7a bd 01 20 c4 bd
       0.09243036 -0.021184899 -0.06118293 -0.09576417
000180 a6 1c 2a be 8a 74 93 bd 72 f3 dd 3d bf b7 1e 3e
       -0.16612491 -0.071999624 0.10837449 0.15499781
000190 b2 1f 8e bd 2c 1e b9 bc c7 c4 c2 3d 14 67 20 3e
       -0.06939639 -0.022597395 0.095101885 0.15664321
0001a0 c5 a4 46 3d 27 e1 cd 3c 45 d4 0e 3e 23 f0 35 be
       0.04849698 0.025131775 0.13948162 -0.17767386
0001b0 dd 14 01 be 56 39 97 bd c7 85 92 bd 7b 3d 14 be
       -0.12605615 -0.07383983 -0.07154422 -0.14476578
0001c0 06 38 20 be 00 6a 1c 3e 0d eb bf bd 88 46 37 be
       -0.15646371 0.15274811 -0.09371004 -0.17898
0001d0 40 ff 23 be 25 8c 37 be ec 94 8e 3a b9 c9 f0 3d
       -0.16015339 -0.17924555 0.0010878122 0.117572255
0001e0 e8 fe 0d be d1 3e f1 bd 04 6f b9 bd b2 ee 41 3e
       -0.1386677 -0.117795594 -0.09054378 0.18938711
0001f0 54 e1 19 be 3f 53 a0 bc 70 cb 63 3d 82 22 65 3d
       -0.15027362 -0.019570945 0.055613935 0.055941112
000200 5a 66 03 be 71 27 3d 3d d0 4a 85 bd 8e 1c 6d 3c
       -0.12832013 0.046180192 -0.0650841 0.01447214
000210 2e 9f 19 3e b7 2a 14 3e 7b 1e ef bc 8c 80 38 3e
       0.15002128 0.1446942 -0.029189339 0.18017787
000220 b2 72 f6 3d ba f0 af bc 95 18 2a 3e 32 7a bc 3d
       0.12033595 -0.021477092 0.1661094 0.092029944
000230 e0 72 e4 bc 21 ed 21 be b9 38 84 3d 1c e2 0a 3e
       -0.027886808 -0.15813114 0.064561315 0.13562816
000240 5a 66 3e be 7b 2c 05 bd 30 ad 01 be 6d 5d 17 3e
       -0.18593732 -0.032513123 -0.12663722 0.14781733
000250 11 11 46 bd ba 4a 0b 3d 34 6b 25 3e bb ef 91 bc
       -0.04835612 0.03400681 0.16154176 -0.017814508
000260 68 8e d7 3d 1e fb 45 3e 6d e5 bc 3d 5c 7d c7 bd
       0.10525209 0.19334075 0.09223447 -0.09740707
000270 5d 3c be 3d d3 20 f1 3c c2 8a c1 bd 86 7c 1c 3e
       0.09288857 0.029434597 -0.09450294 0.15281877
000280 85 d5 02 3e 44 25 1e bd d2 e4 1c be b3 fa cf bd
       0.12776764 -0.038609758 -0.15321663 -0.10155239
000290 99 12 1f 3e f0 6e 00 3e 9d 2a 10 be 69 c4 64 3d
       0.15534438 0.1254232 -0.14078756 0.055851374
0002a0 65 bf 16 be 0c 21 e8 bc 98 ee 18 3e 42 94 42 3d
       -0.14721449 -0.02833607 0.14934766 0.04750467
0002b0 ff e3 78 3d 2b be 85 3c c2 db c2 3d 69 7f 09 3d
       0.06076431 0.01632603 0.09514572 0.033568773
0002c0 65 3c 2d 3c 7f 12 8b 3d e1 4a 16 be a0 04 6e 3d
       0.010573481 0.06790637 -0.14677002 0.05810988
0002d0 57 83 af 3d 1f 71 38 bd da f6 2b 3d 48 2e 30 be
       0.08569973 -0.045029756 0.041983463 -0.17205155
0002e0 ef a7 46 3d d7 87 1a bd 95 0f c8 bd e1 e8 70 3d
       0.048499998 -0.037727203 -0.09768597 0.05881584
0002f0 7e fc 02 3d e8 bc 06 3e 50 be 32 be bc 1a 31 3d
       0.031979077 0.13158 -0.17455411 0.043238387
000300 1e 17 f9 bb ca bb 39 3d 08 a3 2e 3e 05 de 09 3d
       -0.0076016327 0.045345105 0.17054379 0.033659
000310 be d2 fc 3c d5 51 1b 3e c5 2c ad 3c da 35 07 3e
       0.030862208 0.15167935 0.021139512 0.13204136
000320 05 7d 97 3c 28 0f aa bd 83 1c bb 3c 02 f2 ef 3d
       0.018492231 -0.08303672 0.022840744 0.11716081
000330 a0 c1 15 3e f4 4d 76 3d cd c4 d3 3d e7 ee b3 3d
       0.14624643 0.060132936 0.10340271 0.087858014
000340 21 14 7d bd 38 67 78 bd 73 2b a1 bd 90 51 0c bd
       -0.061786775 -0.060645312 -0.078696154 -0.03425747
000350 ff 59 c3 3d 88 e4 20 be 95 b0 a7 3d 2a 47 b8 bc
       0.0953865 -0.15712178 0.08187977 -0.022494871
000360 53 19 cc bc 56 16 a9 3c 48 9e 7c bd 37 fb 2d bd
       -0.02491442 0.020640533 -0.061674386 -0.042475905
000370 21 84 81 3d d5 7f 00 3e 3c 05 f1 3d cb b8 aa bc
       0.0632403 0.12548764 0.117685765 -0.02084007
000380 45 45 3e 3e fb 8c b1 3d 14 45 c3 3d d7 00 91 bd
       0.18581112 0.08669468 0.0953466 -0.07080238
000390 52 95 60 bd 80 95 e9 bd 00 f3 fd bc 74 46 08 3e
       -0.054829903 -0.11405468 -0.03099966 0.13308126
0003a0 6f 0d bb bd fb 0a 13 3d 8b e8 cb 3d 28 4c ce bd
       -0.09133422 0.035899144 0.099564634 -0.100731194
0003b0 7c 8b 1c 3e 88 b8 03 be d7 a3 33 3e 86 62 bc bd
       0.15287584 -0.12863362 0.17542969 -0.09198479
0003c0 02 8d 57 3c 75 70 30 3e 70 f2 2b be 7a 50 c0 3d
       0.0131561775 0.17230399 -0.16791701 0.0939035
0003d0 27 38 35 bd 79 63 1c 3e db 99 06 3d 81 45 9d bd
       -0.044243004 0.15272321 0.03286157 -0.076792724
0003e0 24 23 37 bd 53 67 17 3e 5a bc 09 bd 70 99 1b bd
       -0.044711247 0.14785509 -0.03362689 -0.037988126
0003f0 1b b7 2a 3e cb 7c a6 bd 64 85 80 bb 3a 00 bb 3c
       0.16671412 -0.08129271 -0.0039221514 0.022827256

layer.linear1.bias f4 [128]
000000 d4 48 1f be e2 c4 98 bd 83 90 37 bd 88 90 ae bd
       -0.15555125 -0.074594274 -0.04481555 -0.08523661
000010 66 01 a3 bd cb e8 0c be 6f 87 0c 3e b0 0b 3a be
       -0.07959251 -0.13760678 0.13723539 -0.18168521
000020 86 e3 18 be 2d 5c f6 bd 8a 1e 2a 3d e2 99 57 bd
       -0.14930543 -0.120293 0.04153303 -0.05263699
000030 41 85 82 3d 96 59 de 3d 68 b5 04 bc 2e d9 78 bc
       0.063730724 0.10856931 -0.008099891 -0.015188498
000040 68 36 be bc 48 fe 1c 3e bd 1a ac bd d7 70 d0 3d
       -0.023219302 0.15331376 -0.084035374 0.101777725
000050 d1 e0 a3 3d 09 ec 73 3d 0c fc c2 3d 38 9d f1 bd
       0.08001865 0.059551273 0.095207304 -0.11797565
000060 0c 1a 15 3e 24 70 0f 3e aa 9a f1 bd a4 dd 38 3d
       0.14560717 0.14007622 -0.11797078 0.045133248
000070 76 69 41 be ca cb 14 be 0a aa a2 bd 48 bc e4 3c
       -0.18887886 -0.14530864 -0.079425886 0.02792181
000080 c2 fd b3 bd e1 6a ca bd 18 10 44 3e 0e 27 7a bd
       -0.08788635 -0.09883667 0.19146764 -0.0610724
000090 a5 32 2a be 8d 39 17 3e ff b6 25 3e c8 8a f2 3d
       -0.16620882 0.14768048 0.16183089 0.11842877
0000a0 08 67 9c 3d c7 ee ec bd 19 34 05 3e 66 69 83 3d
       0.07636839 -0.11568981 0.13008155 0.064165875
0000b0 9b 5e 34 3e 86 40 cd 3d 73 43 25 3e 43 19 da 3d
       0.17614214 0.100220725 0.16139011 0.106493495
0000c0 3c b8 9c 3d 77 29 b6 bc 99 37 e9 bd 10 06 9b 3d
       0.076523274 -0.022236569 -0.113875575 0.07569516
0000d0 3e 7e 7d 3c b8 09 30 bd a6 1f 9e 3d 1a a4 5d bd
       0.015471993 -0.04297802 0.0772088 -0.054111578
0000e0 ee fb 51 bc 65 81 01 3d 8d e5 07 3e 8a 10 86 bd
       -0.012816412 0.03161754 0.1327116 -0.06546123
0000f0 ba 4d 80 bc d0 da 0c be 1f a8 0b 3e 42 5c cc bd
       -0.015662063 -0.13755345 0.13638352 -0.09978534
000100 70 9c a6 3d ca 20 08 be 82 4d 78 3d ba 2f 81 3d
       0.08135307 -0.13293758 0.060620792 0.06307931
000110 6a 29 ea 3d 31 57 fb 3d f0 a9 20 3d ad 57 5c bd
       0.1143368 0.1227249 0.039224565 -0.05379455
000120 8b 27 ac 3d 4f 8b ed 3d a0 c5 34 3e 79 47 dd bd
       0.0840598 0.11598837 0.17653513 -0.10804648
000130 21 d8 82 3d 09 42 21 be ed 9c a8 bc 88 9d 21 be
       0.063888796 -0.15747847 -0.02058264 -0.1578275
000140 97 b9 de bd eb be 0e be 30 d9 21 3e fb a7 03 3e
       -0.10875242 -0.13940017 0.15805507 0.12857048
000150 36 fd e3 bd d2 ab f6 3d 54 14 2c bb 79 17 c5 3d
       -0.111322805 0.12044491 -0.0026257234 0.09623618
000160 a2 3f 91 bc b5 70 0e be 64 19 0d bd da 4e aa 3d
       -0.017730538 -0.13910182 -0.034448043 0.08315821
000170 b0 00 04 3d 27 f5 0a be 6c 18 93 bd 73 9d 45 3e
       0.03222722 -0.1357008 -0.071823925 0.19298343
000180 f7 f4 18 be d4 99 03 3e 23 b7 c8 bd 4b 00 b2 3d
       -0.14937197 0.1285165 -0.098005556 0.08691462
000190 5c fc cc b9 f3 f9 1e 3e 55 b9 ac 3d 46 7b 81 bd
       -0.00039097934 0.15525036 0.08433787 -0.06322341
0001a0 00 a5 c1 b7 b4 9c 1b be 25 cb 11 be 81 cc 1b 3e
       -2.3084227e-05 -0.15196496 -0.1423765 0.15214731
0001b0 a8 ce b4 bc 16 7e 95 3d 40 15 43 3e b1 00 c9 bd
       -0.022071198 0.072994396 0.19051075 -0.09814585
0001c0 76 48 77 3d 43 4e 17 3e 85 08 84 3d fa c6 c3 bd
       0.06037184 0.14775948 0.064469375 -0.09559436
0001d0 e3 29 91 bd a7 7b 09 be a6 b5 3a bd d2 ef 28 3e
       -0.070880674 -0.13426076 -0.04558339 0.16497734
0001e0 56 89 5d ba 35 7f 93 bd 7b 10 86 bd 95 75 25 3e
       -0.00084509456 -0.07201997 -0.06546112 0.16158135
0001f0 25 80 14 3e 35 60 0e 3e 54 75 e1 3d 85 c8 16 be
       0.14502008 0.13903888 0.11008707 -0.1472493

layer.linear2.weight f4 [32, 128]
000000 c9 28 70 bc 89 2d 8b bd 8c e4 4c bc c0 5c 1d bc
       -0.014658161 -0.067957945 -0.012505662 -0.009604633
000010 2d 4c 05 bc 6f 97 96 bd ad e1 72 bd 72 90 c1 bd
       -0.0081358375 -0.073531024 -0.059297252 -0.09451379
000020 55 17 52 bd 14 f1 10 bd 5b 0a 46 bd 9b 93 c9 3d
       -0.051291782 -0.03538616 -0.04834972 0.09842607
000030 a3 d0 2b ba 5c 64 a2 3d e9 c3 ab bd 5d cc 4c 3d
       -0.00065542216 0.07929298 -0.08386976 0.049999584
000040 e9 e5 bf 3d 5f 5a 82 bd 33 c5 34 bd c2 77 d7 bc
       0.09370024 -0.06364893 -0.044133376 -0.026302222
000050 8c 56 3a 3c 59 cb 05 3c 6e 61 2e bd 0a ab 48 3d
       0.011373173 0.008166158 -0.042573385 0.04899124
000060 36 38 fa 3b 46 07 96 3b d3 21 90 bd 28 cf 95 3c
       0.0076360954 0.004578504 -0.070377015 0.018287256
000070 78 7d 9d 3d 98 7d 62 bd 35 04 fa bc 57 94 d1 3c
       0.07689947 -0.055295557 -0.030519584 0.02558343
000080 51 27 8a 3d 18 56 8b ba 41 38 1c bc 92 be b2 3d
       0.0674578 -0.0010630516 -0.009534896 0.08727755
000090 63 12 b5 3c f8 53 06 bc 3d 52 94 bd d1 35 d1 3d
       0.022103494 -0.008198731 -0.07242248 0.10215343
0000a0 ee cd af 3d cf 0d 06 3d 57 03 71 bc e3 3b 65 3c
       0.085842 0.032728013 -0.014710269 0.013991329
0000b0 43 c5 07 3d b1 03 33 bd b2 c4 0c 3c 9a e3 b9 3b
       0.033147108 -0.043704692 0.008591818 0.005672884
0000c0 c8 8b ca 3c 0e a8 3d bd 8f 4a cd bd 95 da f2 bc
       0.024724856 -0.046302848 -0.100239865 -0.029645244
0000d0 fd 4e a3 bd e9 46 8b 3c 8f d8 e6 ba 91 da 64 bd
       -0.0797405 0.017001586 -0.0017612147 -0.055872504
0000e0 d9 ea c7 bd 88 8e 0b bd 4d d9 c8 3c 9b a4 6a bd
       -0.097615905 -0.034071475 0.02451768 -0.057285886
0000f0 3c f7 b5 3b 9e 00 14 3d 6e 6f bf 3c fd 47 88 bd
       0.0055531543 0.0361334 0.023368564 -0.06654356
000100 86 af a7 3d a9 e8 a9 3d 51 ec 00 3d b4 f5 cc 3d
       0.08187775 0.082963295 0.03147537 0.10007802
000110 99 36 e0 3c b0 60 e5 3c 34 33 26 3d 32 33 7a bd
       0.027369784 0.028000206 0.040576175 -0.06108398
000120 81 77 dd 3c 17 76 de 3c 07 4c f2 bc ea c6 81 bc
       0.027034523 0.027155919 -0.029577268 -0.01584192
000130 11 f7 ab bd 56 c2 6d 3b 40 d6 08 3d e0 a2 94 bd
       -0.083967336 0.0036279163 0.03340745 -0.072576284
000140 f1 89 a2 bb a4 97 80 3d 20 ea 47 bd ec 3a 45 3d
       -0.0049602916 0.06278923 -0.048807263 0.048151895
000150 ae 67 50 bd dd 6f cd bb 7f 8c 15 bd f9 31 23 bc
       -0.050880127 -0.0062694387 -0.03651094 -0.009960645
000160 07 35 b9 3d 99 de 65 bd d5 3b 39 3d b8 21 0e bd
       0.09043317 -0.05612049 0.045223076 -0.034700125
000170 45 8a 54 bd 1a 50 a0 3b e1 ef ba bd d5 5f 0d bd
       -0.051889677 0.0048923614 -0.091277845 -0.03451522
000180 fa 74 34 bc 3f 03 a4 3d a6 83 41 3d 00 f3 e2 bc
       -0.0110142175 0.08008432 0.04724469 -0.027703762
000190 d9 5d 81 bd 86 c5 ce 3d 45 30 88 3b 6e 1b 5b 3d
       -0.06316728 0.10096268 0.004156145 0.053492956
0001a0 2d 9d 43 bc e3 56 af bd ba 04 a0 3c ab 92 d7 3d
       -0.011939329 -0.08561494 0.019533504 0.105260216
0001b0 7e 49 a3 3d 80 34 86 bd e4 71 a5 3d 1a 2b 93 bd
       0.07973002 -0.06552982 0.080783635 -0.07185955
0001c0 e2 09 ac 3c 14 98 23 3c 80 af da 3c 12 29 af 3d
       0.021000806 0.009984989 0.026695013 0.085527554
0001d0 5e bc 47 bd 40 ee 7e 3d de 39 7b 3d 92 ab d2 3c
       -0.048763625 0.06223893 0.061334483 0.025716577
0001e0 8a 20 b8 bd 13 5b 13 3d d2 d6 8a bd f1 7d 8e bd
       -0.08990581 0.035975527 -0.06779255 -0.06957615
0001f0 a6 00 82 bd 73 41 35 bd 9f 7e 80 3d 41 66 71 3d
       -0.0634778 -0.04425187 0.06274151 0.058935408
000200 20 78 2d bd db 17 d9 b9 9a 54 88 3c 87 22 81 bd
       -0.04235089 -0.0004140724 0.016641904 -0.06305414
000210 e2 ec 0a 3d b4 08 65 3c d9 c3 04 bd 0b 25 63 bd
       0.033917315 0.013979126 -0.032413337 -0.05545525
000220 9b c5 26 3d 2a b2 8c bc d1 28 16 bd fb 28 86 3c
       0.040715795 -0.017174799 -0.03666002 0.016376963
000230 a1 42 8d 3d 72 84 ae bd 21 7c b5 3d c4 4a 81 3d
       0.06897474 -0.08521356 0.08861566 0.063130885
000240 f0 22 19 3d 9b e5 10 bc 1e fc c9 3b c5 ff 02 3d
       0.037386835 -0.008843805 0.006164088 0.031982202
000250 3f db 4d bd fd e8 9d 3c c9 81 14 bd 3b 6c b0 bc
       -0.050257917 0.019276137 -0.036256585 -0.021535983
000260 ac f9 59 3d 42 07 9d bd 53 88 8c bd a6 f2 80 bd
       0.05321662 -0.076674 -0.06861939 -0.062962815
000270 3c 56 36 bd 50 7b 2d 3d fd d3 92 bd 2b 85 74 3d
       -0.044515833 0.042353928 -0.0716934 0.05969731
000280 c0 c5 aa bd c0 01 65 3c a0 57 aa 3d ad f2 9f 3c
       -0.08338499 0.013977468 0.083174944 0.019524897
000290 28 a1 ba bd 11 68 f3 3c ac a1 a5 3d 54 1a 34 bd
       -0.09112769 0.029712709 0.08087477 -0.04397042
0002a0 70 85 c6 3c 1c 77 03 3d b0 ac 08 3c fb ee d9 3d
       0.02423355 0.032096013 0.008341953 0.10641285
0002b0 39 be 82 bd de 24 84 3b 96 4e e0 bc 54 45 b9 3c
       -0.06383938 0.004032715 -0.027381223 0.022616066
0002c0 0f 68 9a 3c d7 0b df 3c 78 60 46 3d 71 7d 35 bd
       0.018848447 0.027227325 0.048431844 -0.044309083
0002d0 9c 39 7e 3d 5f 77 c7 bd eb 7c ca 3c 54 ae c9 3d
       0.06206666 -0.09739565 0.024717769 0.098477036
0002e0 e0 55 36 3d 31 40 56 3d 82 8b 57 bd 8c 82 c9 bc
       0.04451549 0.05230731 -0.05262328 -0.024598382
0002f0 d4 a5 8f bc 18 8c aa 3b 96 d5 d0 bc 51 59 94 3d
       -0.017535128 0.0052046888 -0.02549247 0.07243598
000300 18 1b d7 3c 8f e0 1f bd 95 dc 82 3d d5 ff 6a 3d
       0.026258036 -0.039032515 0.06389729 0.057372887
000310 3e f8 2d 3d b1 bf 9e 3d ce 54 78 3d c8 b5 3a 3d
       0.04247307 0.07751406 0.06062775 0.045583516
000320 dc 1e f2 3b 67 37 b9 3d 77 ce 5b 3c 72 3c 57 3d
       0.0073889326 0.0904377 0.013415924 0.05254788
000330 2d 0c 31 3d 86 46 2b 3c e9 2c c3 3d 82 1a b1 bc
       0.043224502 0.010453826 0.0953005 -0.021619085
000340 ba 15 4a bd 14 2c 19 3d f3 c5 88 3d ab a5 b7 3d
       -0.049337126 0.03739555 0.06678381 0.089671455
000350 64 ae fc 3c a3 a7 b6 bd 3b c6 45 3d 56 4b 0c bd
       0.030844875 -0.08918693 0.04828475 -0.034251533
000360 8d 4e 82 3d 75 0b 1c bc 3c 84 59 bd ca 3c 80 bd
       0.063626386 -0.009524216 -0.053104624 -0.062615946
000370 58 87 87 bc 63 49 43 bc 50 2c 83 bc 0d a3 65 3d
       -0.01654403 -0.011919352 -0.01601234 0.0560637
000380 ce b1 0d 3d df eb 8c bc e3 99 e5 3c d4 84 0d bb
       0.034593396 -0.017202316 0.02802748 -0.0021594064
000390 e9 23 80 bd ac 21 81 3c 61 a9 2b 3c d0 d8 47 3b
       -0.06256849 0.015763126 0.010477395 0.003049422
0003a0 5d e3 3b bc 07 f0 62 3d ef 8a fe bc f1 0a 12 3d
       -0.011467782 0.05540469 -0.031072108 0.035654966
0003b0 ac 78 d6 bc 07 f5 6c bd d6 eb 9d bb 78 30 85 bd
       -0.026180588 -0.057850864 -0.0048193736 -0.06503385
0003c0 87 a1 5b 3d d4 2f 5f bd fc fe c0 3c d3 96 0d 3d
       0.05362084 -0.05448897 0.023559086 0.034567665
0003d0 77 80 8c bd 6f 8f 70 3d f0 5d 6a 3c 74 d0 82 bd
       -0.0686044 0.05873054 0.014304623 -0.063874155
0003e0 5e ca 3b bb cc fe c2 bd 55 29 b9 bd 53 23 45 3d
       -0.0028654556 -0.09521255 -0.090410866 0.04812939
0003f0 61 1d 65 3d f0 20 90 bd 0e 5b 26 3b 11 c0 aa bc
       0.05593622 -0.07037532 0.0025383863 -0.020843538

layer.linear2.bias f4 [32]
000000 fb 60 76 bc 47 c6 29 bd 11 1e c7 bc 6f a2 6b 3d
       -0.01503777 -0.041448858 -0.024306329 0.057527956
000010 83 43 4e 3d 23 17 a0 bd 0e 1c fa 3c 37 93 bf ba
       0.050357353 -0.07816913 0.030530956 -0.0014616017
000020 5c 8e 09 3d 2d dd a8 3d 92 d3 7b 3d ed e7 02 3d
       0.03358303 0.08245311 0.061481066 0.031959463
000030 42 bf e2 bc cf 2d 64 3d ec 6a 96 bd 21 fb 50 bd
       -0.02767909 0.05570775 -0.073446125 -0.051020745
000040 07 84 d0 bc d2 4f b1 bc 01 e9 10 3d f6 13 85 3d
       -0.02545358 -0.021644507 0.03537846 0.06497948
000050 10 ec 61 bd 80 86 b8 bc 80 d1 63 bd 74 8a 6f 3c
       -0.055156767 -0.022525072 -0.055619717 0.014620412
000060 fe 3f 22 3d 55 b3 7f 3c 0c d2 45 3d 6d 23 4b bc
       0.03961181 0.015606721 0.04829602 -0.012398583
000070 a6 05 5f 3d ea 5b 1e 3d c6 ab f6 3c 3c 5b c5 3d
       0.054448746 0.038661875 0.030111205 0.09636542
